3_Hardware/2_Hardware/model/model.tflite (tflite, 462848 bytes, 12 tensors)

sequential/conv2d/BiasAdd/ReadVariableOp f4 [16]
0	0x3e5b4310	0.21412301
1	0x3d9045a5	0.07044534
2	0x3e1ca306	0.15296564
3	0x3d1029c6	0.03519609
4	0xbdb28b6c	-0.08717999
5	0x3eb2d10b	0.34925112
6	0x3dc1b6b3	0.09458675
7	0x3d363d28	0.044491917
8	0xbd354621	-0.044256333
9	0x3d06c4ff	0.032902714
10	0x3d8b6e62	0.06808163
11	0x3e97892a	0.29596835
12	0xbe6dc7dc	-0.23220772
13	0x3c82dffc	0.015975945
14	0xbca66b45	-0.020314822
15	0x3d059869	0.032616053

sequential/conv2d_1/BiasAdd/ReadVariableOp f4 [32]
0	0x3e1e754e	0.15474436
1	0x3d0a63b5	0.033786494
2	0x3dd24dbd	0.10268734
3	0x3e0da3be	0.13831994
4	0xbd1da3fc	-0.038486466
5	0xbe0dfeea	-0.13866773
6	0x3e2fd548	0.17171204
7	0x3cd7d3a6	0.026346039
8	0xbd994dc3	-0.07485535
9	0xbcb0bb7f	-0.02157378
10	0xbd1f9105	-0.03895666
11	0xbd4acdbe	-0.049512617
12	0x3df88b75	0.12135974
13	0x3cf27cd3	0.029600536
14	0x3df3ae76	0.1189851
15	0x3cad7b6c	0.021177016
16	0xbd6f0b35	-0.058360297
17	0xbd911225	-0.07083539
18	0x3d93a5a3	0.07209327
19	0xbb94ed4d	-0.00454489
20	0xbd4e2927	-0.050332215
21	0x3a69a920	0.0008913446
22	0x3e0cc105	0.13745506
23	0xbdf53c35	-0.11974374
24	0xbd90a980	-0.070635796
25	0x3cc73455	0.024316946
26	0xbd8aab16	-0.06770913
27	0x3d34b398	0.044116586
28	0x3cb90e88	0.022589937
29	0x3d45622f	0.04818934
30	0xbcbad95e	-0.022808727
31	0xbd99d0bf	-0.07510518

sequential/conv2d_2/BiasAdd/ReadVariableOp f4 [64]
0	0xbd257887	-0.040398147
1	0x3b77f79a	0.003783679
2	0xbd2ad571	-0.04170746
3	0x3c2775e7	0.010220981
4	0x3d21158f	0.0393272
5	0x3c4bb752	0.012433844
6	0x3d03e635	0.032201964
7	0xbd1dcf28	-0.038527638
8	0x3d08ba59	0.03338084
9	0x3deffa81	0.11717702
10	0xbccf388f	-0.025295524
11	0x3d2c2f48	0.04203728
12	0x3d150e10	0.036390364
13	0xbd82ae93	-0.06380954
14	0xbce2a9f0	-0.027668923
15	0x3d09c3eb	0.033634108
16	0x3d91763d	0.0710263
17	0xbb2f98d1	-0.0026793967
18	0x3d716c97	0.05894145
19	0xbcaa26aa	-0.02077039
20	0xbd3ac210	-0.04559523
21	0x3c01a8b7	0.00791376
22	0xbd0ea14d	-0.034821797
23	0xbd5fc4af	-0.05463093
24	0xbd281c62	-0.041042693
25	0xbbabd616	-0.005244027
26	0xbc5c4901	-0.01344514
27	0xbd1b30db	-0.03788839
28	0xbccb874d	-0.02484479
29	0xbc8441ab	-0.016144594
30	0x3b613d91	0.0034368972
31	0xbd3a0efb	-0.045424443
32	0xbb51d689	-0.0032018742
33	0xbd0fd54b	-0.03511552
34	0x3bf5969e	0.0074947616
35	0xbd066425	-0.03281035
36	0xbb0847dd	-0.0020794787
37	0xbd2e3e4f	-0.04253989
38	0xbd255d52	-0.0403722
39	0xbcc78472	-0.024355147
40	0x3c85d5a8	0.01633723
41	0x3b016077	0.0019741335
42	0xbd96584d	-0.07341061
43	0xbcc35c53	-0.023847735
44	0xbb1a936f	-0.0023586412
45	0xbcb944cc	-0.022615813
46	0xbc3cac5f	-0.011515706
47	0x3d3033c2	0.04301811
48	0xbcd5af5c	-0.026084594
49	0xbc1140a4	-0.008865509
50	0x3d44938a	0.047992267
51	0x3c5de46d	0.0135432305
52	0x3e067c97	0.13133465
53	0x3b0b6823	0.0021271787
54	0x3d8cff19	0.068845935
55	0xbd0b05b0	-0.03394097
56	0xbcc81e5a	-0.024428535
57	0xbc63687d	-0.013879892
58	0xba9dabd0	-0.0012029354
59	0xbcee9d91	-0.029127868
60	0x3d36fb66	0.044673346
61	0xbcc0ad50	-0.023520142
62	0xbc8bafa1	-0.01705152
63	0xbbb6734d	-0.005567944

sequential/conv2d_3/BiasAdd/ReadVariableOp f4 [128]
0	0xbc8e4112	-0.017365012
1	0xbc74ff0f	-0.014953389
2	0x3bcca842	0.006245644
3	0xbc078bc5	-0.00827307
4	0xbc0fa148	-0.00876648
5	0xbd231404	-0.03981401
6	0xbc77dac3	-0.01512784
7	0xbc5d2bf7	-0.013499252
8	0xbbd0c0a2	-0.00637062
9	0xbd227ee0	-0.03967178
10	0xbca7216c	-0.020401679
11	0xbd79f18d	-0.061021376
12	0xbc18018d	-0.0092777135
13	0xbd005856	-0.031334244
14	0xbd110005	-0.03540041
15	0xbcc06de6	-0.023489904
16	0xbc344fcc	-0.011005353
17	0xbd120b65	-0.035655398
18	0xbc582c71	-0.013194189
19	0xbd302336	-0.04300233
20	0x3c322537	0.0108731305
21	0x3d1aeec5	0.037825365
22	0x3ca14204	0.019684799
23	0xbd32c834	-0.04364796
24	0xbc41c5a2	-0.0118269045
25	0xbd2f6602	-0.04282189
26	0xbd3122ac	-0.043245956
27	0x3d5c7f3e	0.053832285
28	0x38cb9346	9.707226e-05
29	0xbd489720	-0.04897225
30	0xbbafaa53	-0.0053608804
31	0xbd51dab4	-0.051233962
32	0xbc1c33bb	-0.009533818
33	0xbc55efba	-0.013057644
34	0xbceb58b1	-0.028728815
35	0x3ce9a7c5	0.028522382
36	0xbcdc10c7	-0.026863469
37	0xbd04b24b	-0.032396596
38	0xbc3dc66b	-0.011582951
39	0xbc87168d	-0.016490245
40	0x3c40be82	0.011764171
41	0xbd081a55	-0.033228237
42	0xbca06637	-0.01957999
43	0xbbf3cb3f	-0.0074400003
44	0xbce888b7	-0.028385503
45	0x3d6f390d	0.058404017
46	0xbc705791	-0.014669315
47	0xbbc4ce90	-0.0060060695
48	0xbcc7fcb3	-0.024412489
49	0xbab43d8d	-0.0013751254
50	0xbc68b897	-0.014204166
51	0xbd1be6c8	-0.038061887
52	0xbc67977f	-0.014135241
53	0xbc5f0b1d	-0.013613489
54	0xbcadf8ae	-0.021236744
55	0x3cc3434f	0.023835806
56	0xbcdcbfeb	-0.026946982
57	0xbcaaf4d8	-0.020868704
58	0xbcc81759	-0.024425196
59	0xbd0ec912	-0.034859724
60	0x3b9ec4ad	0.004845223
61	0xbd03dc56	-0.03219255
62	0xbc276a1e	-0.010218171
63	0xbcb59189	-0.022164123
64	0xbd126de5	-0.035749335
65	0xbc9df468	-0.019281581
66	0x3b4740a2	0.0030403514
67	0xbd014118	-0.03155622
68	0xbc95d080	-0.018287897
69	0xbc46b7ef	-0.012128814
70	0xbd6dde95	-0.0580736
71	0xbcb57132	-0.022148702
72	0xbc484fa7	-0.012226022
73	0x3becf0ac	0.0072308388
74	0xbd0f30dc	-0.034958705
75	0xbbc2ec02	-0.0059485445
76	0xbcfd3912	-0.030911002
77	0xbd7e3789	-0.06206468
78	0x3c23fbf1	0.010008798
79	0xbc464574	-0.01210152
80	0x3aa735c1	0.0012757109
81	0xbcd328e0	-0.025776327
82	0xbd3d6844	-0.046242014
83	0xbbfe6eb5	-0.007764662
84	0xbacebf8b	-0.0015773637
85	0x3d22dffb	0.039764386
86	0x3c15856a	0.009126047
87	0xbc0d9166	-0.008640623
88	0xbd1cc67a	-0.03827522
89	0xbd455293	-0.048174452
90	0xbca72342	-0.020402554
91	0xbd080dfb	-0.033216458
92	0xbc3d946a	-0.011571029
93	0xbcf4dcab	-0.029890379
94	0xbd05f619	-0.0327054
95	0xbd0fdcaa	-0.03512255
96	0xbd1766a8	-0.036963135
97	0xbc382354	-0.011238892
98	0xbcec6a23	-0.028859204
99	0x3bcdd4c0	0.0062814653
100	0xbd789c60	-0.060696006
101	0xbc69fe20	-0.0142817795
102	0xbc234ddc	-0.009967294
103	0xbcc6ae18	-0.024252936
104	0x3d8fcf98	0.07022017
105	0x3af5f6bc	0.0018765549
106	0xbc7ba6bc	-0.015359577
107	0x3c2f8f92	0.010715382
108	0xbc362876	-0.011118045
109	0xbcbf095d	-0.023319894
110	0xbc8d0d2f	-0.0172182
111	0xbcfd4177	-0.030915005
112	0x3bbc2b8d	0.0057424963
113	0xbcf7be67	-0.030242158
114	0xbc5f768d	-0.013639105
115	0xbcade447	-0.021227015
116	0xbd721297	-0.05909976
117	0xbd1725bc	-0.03690122
118	0xbcc42a2d	-0.023945892
119	0xbd3b9040	-0.045791864
120	0xbd340ce8	-0.04395762
121	0xbd2c6001	-0.042083744
122	0x3c9b4424	0.01895339
123	0xbd924a97	-0.07143133
124	0xbc3bd48f	-0.011464252
125	0xbd8c3af7	-0.06847184
126	0xbd96f47f	-0.07370853
127	0xbceb211f	-0.028702317

sequential/conv2d/Conv2D f4 [16, 3, 3, 1]
0	0xbdf85e16	-0.121273205
1	0xbd9226c1	-0.07136298
2	0xbdc6bf7f	-0.09704494
3	0xbdb1d91d	-0.08683989
4	0x3c2de685	0.010614042
5	0x3e46cf0c	0.1941492
6	0x3e03e36c	0.12879723
7	0x3dc8c0e2	0.098024145
8	0x3e3e6783	0.18594174
9	0x3e18dd76	0.1492823
10	0x3e4e23fa	0.20130911
11	0xbe272f6a	-0.16326681
12	0x3e7a384e	0.24435541
13	0x3e0f00fd	0.13965221
14	0x3d9a4c94	0.07534137
15	0x3d7365a1	0.059423093
16	0xba15bf36	-0.00057123916
17	0xbdf703c6	-0.120612666
18	0x3c26078b	0.010133634
19	0x3cff47bf	0.03116214
20	0x3e3c0cce	0.1836426
21	0xbda3c14a	-0.07995851
22	0xbda01e09	-0.07818229
23	0x3ea3dacd	0.3200287
24	0xbb20851b	-0.00244934
25	0xbd8295c9	-0.063762255
26	0x3e8a6b69	0.27035072
27	0x3d2ed0ae	0.04267948
28	0x3eb8e156	0.36109418
29	0x3dd091b4	0.10184041
30	0x3eb9c09a	0.36279756
31	0x3e85b534	0.2611481
32	0xbd5b4e7a	-0.053541638
33	0x3e9a7893	0.30170116
34	0x3d9b54d1	0.07584537
35	0xbd1661c1	-0.03671432
36	0xbe274e0e	-0.16338369
37	0xbdea581f	-0.11442589
38	0xbd867507	-0.0656529
39	0xbd8b87ba	-0.06812997
40	0xbd1ee69a	-0.038794138
41	0xbe019381	-0.12653925
42	0x3c8edec0	0.0174402
43	0x3e2e10e9	0.16998638
44	0x3e6ea878	0.23306453
45	0x3d441998	0.04787597
46	0x3dc40150	0.09570563
47	0x3e7dc7f8	0.24783313
48	0xbdecf125	-0.11569432
49	0xbde2c98b	-0.110735975
50	0x3dfcd9d0	0.12346232
51	0x3e5fabcf	0.21842884
52	0xbe223a6e	-0.15842602
53	0xbda57218	-0.08078402
54	0x3e15e941	0.1463976
55	0xbd750294	-0.05981691
56	0x3eb08c72	0.3448215
57	0x3daed76d	0.08537183
58	0x3de0c0cb	0.10974272
59	0x3e7dc703	0.24782948
60	0x3dc6cada	0.097066596
61	0x3d8f62ee	0.07001291
62	0x3e0dc25b	0.13843672
63	0xbd60e0c9	-0.05490187
64	0x3ebfef41	0.37487224
65	0xbd733095	-0.059372503
66	0x3d2cf2ba	0.04222367
67	0x3ed18be4	0.4092704
68	0xbd88b941	-0.066759594
69	0x3ea8eedd	0.32994738
70	0x3c22cbe0	0.009936303
71	0x3dbbcfaf	0.09170472
72	0x3e107a5b	0.14109175
73	0x3dda8b38	0.10671085
74	0xbd44dcae	-0.04806202
75	0x3bd7b2df	0.0065826024
76	0xbdccc556	-0.09998576
77	0x3e301942	0.17197135
78	0xbd8fbacb	-0.0701805
79	0x3d1a003b	0.037597876
80	0xbe234685	-0.1594487
81	0x3e43854f	0.19093822
82	0x3d3f0947	0.046639707
83	0xbd8a31ac	-0.067477554
84	0x3db24e02	0.08706285
85	0x3ddde5a2	0.108348146
86	0x3e1a3ecb	0.15063016
87	0xbe7c18e1	-0.24618866
88	0xbc37e88b	-0.011224876
89	0xbe46170d	-0.1934473
90	0xbd57f0a1	-0.052719716
91	0x3decd72f	0.115644805
92	0x3e640c04	0.22270209
93	0xbe2b8b21	-0.16752292
94	0x3de88091	0.11352647
95	0x3e04a655	0.12954076
96	0xbd8d1403	-0.068885826
97	0x3dfa1f2b	0.12212976
98	0x3e5ed407	0.2176057
99	0xbe6c80ad	-0.23095961
100	0xbdb89144	-0.09012082
101	0x3e3f82a6	0.18702182
102	0x3de69051	0.11257995
103	0xbe29030b	-0.16505067
104	0x3bae1660	0.005312726
105	0x3e4f8349	0.20264925
106	0x3e5c1965	0.21494062
107	0xbde9e30a	-0.114202574
108	0x3d13ba10	0.036066115
109	0xbe269007	-0.1626588
110	0xbe215358	-0.1575445
111	0xbe3a8129	-0.18213333
112	0xbce88939	-0.028385745
113	0x3e249fd5	0.16076596
114	0xbda07409	-0.07834632
115	0xbdb3f5d4	-0.08787122
116	0xbdfdc686	-0.12391381
117	0xbd43facd	-0.047846604
118	0x3e8c1d41	0.2736607
119	0x3df3afcb	0.11898764
120	0xbd5b6267	-0.05356064
121	0x3e76cd71	0.24101807
122	0x3e21e881	0.1581135
123	0xbe4376a3	-0.19088225
124	0x3e5d040b	0.21583574
125	0x3e229437	0.15876852
126	0xbd96cada	-0.073629096
127	0xbe04a61c	-0.1295399
128	0xbe130935	-0.14358981
129	0x3e5929b6	0.21207318
130	0x3d2c4cfa	0.042065598
131	0xbd1fcfb9	-0.03901646
132	0x3e4d9cb5	0.2007931
133	0x3d2c4243	0.04205538
134	0xbd1bff5e	-0.038085334
135	0x3d6c23f6	0.057651483
136	0x3de53e15	0.11193482
137	0x3e968353	0.29397067
138	0x3d4cdc29	0.05001465
139	0x3ead9b73	0.3390766
140	0x3db07573	0.08616152
141	0xbe348712	-0.1762965
142	0x3dddec2b	0.10836061
143	0x3e8cbccb	0.27487788

sequential/conv2d_1/Conv2D f4 [32, 3, 3, 16]
0	0xbab28528	-0.0013620006
1	0xbcb19724	-0.021678515
2	0xbd8f0e9d	-0.06985209
3	0xbbb9440d	-0.0056538642
4	0xbde0a4c8	-0.109689295
5	0xbc4efa40	-0.012632906
6	0x3e04cc1d	0.12968488
7	0xbdab43c0	-0.08362532
8	0x3c985ccd	0.018598938
9	0x3dcd9fa3	0.10040214
10	0x3da2d196	0.079501316
11	0x3d1fc8ac	0.039009735
12	0xbd4bf687	-0.049795654
13	0x3daf57fe	0.08561705
14	0x3d4c1eb7	0.04983398
15	0x3e34a26f	0.17640088
16	0xbd2d3ef3	-0.04229636
17	0x3dd305ef	0.10303866
18	0x3dd0e553	0.1019999
19	0x3dff21bb	0.124576055
20	0xbd9521a0	-0.07281804
21	0x3e07dc39	0.13267602
22	0xbcde7530	-0.027155489
23	0x3d331545	0.043721456
24	0xbd11ab4d	-0.035563756
25	0x3d61fda2	0.055173524
26	0xbd9d79ab	-0.07689222
27	0x3c10960f	0.008824839
28	0xbdb9ac90	-0.09066117
29	0x3dd6e664	0.10493162
30	0xbe070c4e	-0.13188288
31	0xbe13f88a	-0.14450279
32	0x3d2ca9f2	0.04215426
33	0xbd4869fd	-0.048929203
34	0xbe01cc72	-0.12675646
35	0xbc8f7e9f	-0.017516432
36	0xbe017fa7	-0.12646352
37	0xbc936667	-0.017993165
38	0xbd579959	-0.052636478
39	0x3de59891	0.1121074
40	0xbd7cb118	-0.061692327
41	0x3d964449	0.07337243
42	0xbcc58bb8	-0.024114475
43	0x3e0c8cd6	0.137256
44	0xbe0a552f	-0.13509057
45	0x3d2d0019	0.04223642
46	0x3dcfa33a	0.10138555
47	0x3db49677	0.088177614
48	0xbc9805fb	-0.01855754
49	0xbdda8a7e	-0.106709465
50	0x3e2b7ab2	0.16746023
51	0x3d3d70b7	0.04625007
52	0x3ce7a116	0.028275054
53	0x3e18c6fb	0.14919655
54	0x3cbaa575	0.022783974
55	0xbc9bbddc	-0.01901143
56	0x3d40bbef	0.047054227
57	0x3e55ea5e	0.20890185
58	0x3d44f287	0.048082855
59	0xbb64ce9c	-0.0034913188
60	0xbc32b3c7	-0.01090712
61	0xbd61ab59	-0.05509505
62	0xbd141370	-0.03615135
63	0x3dae6943	0.08516171
64	0xbd8ad783	-0.06779387
65	0xbd894ec2	-0.06704475
66	0x3a7d08da	0.0009652503
67	0x3e42d7bc	0.19027609
68	0xbd99e3a9	-0.07514126
69	0x3df002ca	0.11719282
70	0x3cc9d181	0.024636032
71	0x3ca914df	0.020639835
72	0x3c330c96	0.010928294
73	0x3d90324f	0.070408456
74	0xbe22a699	-0.15883864
75	0xbcd41456	-0.025888603
76	0x3d05d905	0.03267767
77	0xbdd26270	-0.10272682
78	0x3c24838e	0.010041131
79	0xbd720524	-0.059086934
80	0x3c26433a	0.010147864
81	0x3e1a9a43	0.15097909
82	0x3ca2c73d	0.019870395
83	0xbd0fbc8a	-0.035091914
84	0xbdf13e57	-0.117794685
85	0x3e10c6b2	0.14138296
86	0xbdbc24fe	-0.09186743
87	0xbd64050d	-0.05566888
88	0x3e4e4b0c	0.20145816
89	0x3e20f910	0.1572001
90	0x3d68439d	0.056705106
91	0xbd8d8458	-0.06910008
92	0xbdb3118a	-0.0874358
93	0xbd241c00	-0.040065765
94	0xbdd9f782	-0.106429115
95	0xbd60212f	-0.054719146
96	0x3d38b8ca	0.045098104
97	0xbe15bb51	-0.14622237
98	0x3c2833b6	0.010266235
99	0x3d7979b9	0.0609071
100	0xbd97589a	-0.07389946
101	0x3dee6be3	0.116416715
102	0x3d8b90f7	0.06814759
103	0x3e018916	0.1264995
104	0xbd93473c	-0.07191321
105	0xbdd72dd8	-0.10506791
106	0x3dbc90e3	0.092073224
107	0x3e3e7760	0.18600225
108	0x3e146271	0.14490677
109	0x3c995e8b	0.01872184
110	0xbe0e1aa7	-0.13877355
111	0x3daf520c	0.08560571
112	0x3d007d21	0.031369332
113	0x3d79beb1	0.060972873
114	0xbc2276f9	-0.009916061
115	0x3e0adbec	0.13560456
116	0x3d937f6d	0.07202039
117	0x3dc149b2	0.094378844
118	0x3cd6dbca	0.02622785
119	0x3d2345a7	0.039861348
120	0xbd288f07	-0.041152027
121	0xbdaa731d	-0.08322737
122	0xbd2cea8e	-0.042215876
123	0xbdb7c355	-0.089728035
124	0x3db75c01	0.08953095
125	0xbb8e35ca	-0.0043399082
126	0xbdd2e43d	-0.10297439
127	0x3d8b0946	0.06788878
128	0x3d92eec8	0.0717445
129	0x3c91a341	0.01777804
130	0x3c18af53	0.009319144
131	0xbdfeb060	-0.124359846
132	0xbc6c29de	-0.014414279
133	0xbc1aea95	-0.009455343
134	0x3d0b63e2	0.034030803
135	0x3dc9e98d	0.098589994
136	0xbd206480	-0.039158344
137	0x3ca04ad4	0.01956693
138	0xbd3abee7	-0.045592215
139	0x3dd04252	0.101688996
140	0x3d796ea0	0.060896516
141	0x3d4d6ec0	0.050154448
142	0xbdd77766	-0.1052082
143	0xbda73f89	-0.08166415
144	0x3d7233c5	0.059131403
145	0x3cd7f3b5	0.026361326
146	0xbcbe33a1	-0.023217978
147	0x3df00494	0.11719623
148	0x3c61e36a	0.01378713
149	0x3d181dc1	0.03713775
150	0x3cf6c3c0	0.030122638
151	0x3b253f80	0.002521485
152	0x3d63459d	0.05548631
153	0x3dbf4457	0.09339207
154	0xbd8e1651	-0.0693785
155	0x3d258605	0.040411014
156	0xbe2deea6	-0.16985568
157	0xbc961356	-0.018319767
158	0xbd9fdc0f	-0.07805645
159	0xbdec8813	-0.115493916
160	0x3dc6885a	0.09693976
161	0x3d080290	0.03320557
162	0x3df4e379	0.119574495
163	0xbc99df89	-0.018783348
164	0xbd72d71d	-0.05928718
165	0xbd465b7d	-0.048427094
166	0x3cc21cbf	0.023695348
167	0xbb94dd17	-0.0045429575
168	0x3e12c2c5	0.14332111
169	0x3e0635ea	0.13106504
170	0x3d985194	0.07437435
171	0x3b4c326d	0.0031157986
172	0xbd60c244	-0.054872766
173	0x3c827446	0.015924584
174	0xbcb21b44	-0.021741517
175	0xbd6a18ca	-0.057152547
176	0x3da93dc1	0.08263732
177	0x3cebf4ce	0.028803255
178	0xbc09d492	-0.008412497
179	0x3cbbc034	0.022918798
180	0x3ca68a8c	0.020329736
181	0xbc86be82	-0.016448263
182	0xbdc92f27	-0.09823447
183	0x3e0d5d27	0.13805066
184	0xbd4da506	-0.050206207
185	0xbcfeb636	-0.031092744
186	0x3e227aab	0.15867107
187	0x3dc68a53	0.09694352
188	0xbdc7b2cb	-0.09750899
189	0x3e53e4c4	0.20692736
190	0x3cbd0dc0	0.023077846
191	0x3e1a8e94	0.15093452
192	0xbdacd3dd	-0.08438847
193	0x3d21d0f1	0.039505903
194	0x3e2e648d	0.17030545
195	0x3dc86c2a	0.09786256
196	0x3d0600a1	0.032715444
197	0x3e42811e	0.18994567
198	0xbe01c707	-0.12673579
199	0x3e7aefe2	0.2450557
200	0xbe161f4a	-0.14660373
201	0xbe0c7ebe	-0.13720223
202	0xbda858ec	-0.082200855
203	0x3dcc01df	0.099612944
204	0xbde75679	-0.1129579
205	0x3cfd7631	0.030940147
206	0xbe05f4ac	-0.13081616
207	0x3d0edcc0	0.034878492
208	0x3e22bca9	0.1589228
209	0x3e3b545f	0.18293904
210	0xbd6460c8	-0.05575636
211	0xbd7fdbd5	-0.062465508
212	0x3d6696f7	0.056296315
213	0x3e338fdd	0.17535348
214	0xbd7aefe8	-0.06126395
215	0x3e4c3d12	0.19945171
216	0x3b8d9978	0.0043212734
217	0x3ded1971	0.11577118
218	0x3d9757c1	0.073897846
219	0x3daf1187	0.08548265
220	0xbd452423	-0.048130166
221	0x3ddef3e5	0.10886363
222	0x3e150f54	0.14556628
223	0x3cedd789	0.02903344
224	0x3cce27fa	0.025165547
225	0xbd94e857	-0.07270878
226	0x3e5053f6	0.20344529
227	0x3d4b5e5e	0.049650542
228	0x3e094f4d	0.13409157
229	0x3e2bcbdd	0.16776986
230	0x3df90223	0.12158611
231	0x3e4b90e0	0.19879484
232	0xbd8ae70c	-0.0678235
233	0xbd84a4cd	-0.06476746
234	0x3e131a9e	0.14365622
235	0x3e252c1e	0.1613011
236	0x3d0b145a	0.033954956
237	0x3cb89625	0.022532532
238	0x3d37728b	0.04478697
239	0x3e50522e	0.20343849
240	0xbccd1c3b	-0.025037875
241	0x3d0d1276	0.034441434
242	0x3cf64f96	0.030067246
243	0xbbdd077b	-0.0067452765
244	0xbe1cb29e	-0.15302512
245	0xbdfaa2b1	-0.12238062
246	0xbcaa46cb	-0.02078571
247	0x3d2d9cb2	0.042385764
248	0xbd3265d6	-0.04355415
249	0xbdec8ebf	-0.11550664
250	0xbe32843e	-0.17433259
251	0xbdbc0917	-0.09181421
252	0x3bbab029	0.0056972695
253	0xbe1ced13	-0.15324812
254	0xbd609350	-0.05482799
255	0xbe4fc8b3	-0.20291404

sequential/conv2d_2/Conv2D f4 [64, 3, 3, 32]
0	0xbe1c025f	-0.1523528
1	0xbe2ddba8	-0.16978323
2	0x3d544289	0.051821265
3	0xbd08a78f	-0.03336292
4	0xbc87bf30	-0.016570657
5	0xbe1071a1	-0.14105846
6	0xbb159b52	-0.0022828174
7	0xbe075532	-0.13216093
8	0xbc972908	-0.018452182
9	0xbd953565	-0.07285575
10	0x3c6be08a	0.014396796
11	0xbce9df3d	-0.028548831
12	0xbd228864	-0.039680853
13	0x3dd1cae9	0.1024378
14	0xbd045d40	-0.032315493
15	0xbcfa01bf	-0.03051841
16	0xbd9572b8	-0.072972715
17	0xbd687338	-0.056750506
18	0x3ce14217	0.027497334
19	0xbdbd5b3d	-0.09245918
20	0x3d4754ce	0.04866486
21	0xbda4d61a	-0.08048649
22	0xbd87a58f	-0.06623375
23	0xbca4a430	-0.020097822
24	0x3d298e0d	0.041395236
25	0xbca8a1b4	-0.020584919
26	0x3c4407b0	0.0119647235
27	0xbe15289a	-0.1456627
28	0x3d976dd3	0.07393994
29	0xbd2ca73b	-0.04215167
30	0x3ce25dab	0.027632555
31	0xbe008360	-0.12550116
32	0xbd3a43c0	-0.045474768
33	0xbb665c06	-0.0035150065
34	0xbd048313	-0.032351565
35	0xbe1d92e8	-0.15388072
36	0x3da610a4	0.08108643
37	0xbe1c3191	-0.15253283
38	0x3d169e82	0.03677226
39	0x3d0fb9d9	0.035089348
40	0xbe2dd139	-0.16974343
41	0xbd79a3c6	-0.060947202
42	0xbdac27f6	-0.084060594
43	0x3bde34bd	0.0067811892
44	0x3d2bd76c	0.04195349
45	0x3d1df60d	0.03856473
46	0xbd7e8681	-0.06213999
47	0x3d0efea0	0.034910798
48	0xbc573470	-0.013135061
49	0x3a557f0d	0.0008144237
50	0x3dc89234	0.09793511
51	0x3d6e5631	0.058187667
52	0xbc7af1c7	-0.015316433
53	0xbe1f3479	-0.1554736
54	0xbd06b49c	-0.032887086
55	0xbdb1137e	-0.08646296
56	0xbe27ba23	-0.163796
57	0xbdf933ec	-0.121681064
58	0xbd853370	-0.065039515
59	0x3d9a7c94	0.07543293
60	0x3d57ff35	0.05273362
61	0xba10e5ac	-0.0005527388
62	0x3db5dd82	0.0888014
63	0xbdd66ba0	-0.104697466
64	0x3e01fbcc	0.12693709
65	0x3e2439ce	0.16037676
66	0x3d39682b	0.045265358
67	0xbdd3b3fd	-0.103370644
68	0x3bab61b4	0.005230153
69	0xbe39f4b3	-0.18159752
70	0x3dde7ca8	0.1086362
71	0x3d264f3d	0.04060291
72	0xbd93cdba	-0.072169736
73	0x3c77d9e3	0.015127632
74	0xbd756a0e	-0.059915595
75	0x3d3c9a95	0.04604586
76	0xbd83f437	-0.06443065
77	0x3c2db9d0	0.010603383
78	0x3deda6fd	0.11604116
79	0x3d89d219	0.06729526
80	0xbe2c327a	-0.1681613
81	0xbdd180f8	-0.10229677
82	0x3e084fe6	0.13311729
83	0xbd34f79f	-0.044181462
84	0xbdd24d6f	-0.102686755
85	0xbd92a0cf	-0.07159578
86	0x3d5e2ddf	0.054242965
87	0xbd56ee8e	-0.052473597
88	0xbd869dee	-0.065730914
89	0xbe99f685	-0.30070892
90	0xbe27a9d9	-0.16373385
91	0x3e009c0a	0.12559524
92	0xbdd020d3	-0.10162511
93	0x3d02374b	0.031791013
94	0x3e3d7a64	0.1850372
95	0xbdb97060	-0.09054637
96	0xbd1ffe2c	-0.039060757
97	0xbdb5c6d2	-0.088758126
98	0x3d1776d9	0.036978576
99	0xb931a856	-0.00016942745
100	0x3b73895d	0.0037160732
101	0xbe4dbd1e	-0.20091674
102	0xbd4a0c1d	-0.04932796
103	0xbd6cab1a	-0.057780363
104	0xbdcc6f0c	-0.09982118
105	0xbd5bb198	-0.053636163
106	0x3b81a62f	0.003956578
107	0xbd85ee4c	-0.06539592
108	0x3b9c1c06	0.004764083
109	0x3d8c918d	0.06863699
110	0x3d76a8b8	0.060219496
111	0x3dd1d5a5	0.102458276
112	0xbd6080d1	-0.05481035
113	0xbd336692	-0.04379899
114	0x3d83ddc9	0.064387865
115	0xbcf195b4	-0.02949033
116	0xbc838625	-0.016055176
117	0xbd446d01	-0.047955517
118	0xbd018db7	-0.03162929
119	0xbd55dd7a	-0.05221317
120	0xbccfae45	-0.025351653
121	0xbe24e39c	-0.16102451
122	0x3d507c4c	0.05089979
123	0xbd8f5dbc	-0.070003
124	0xbc4d6c72	-0.012538062
125	0x3d897db9	0.06713433
126	0xbc846372	-0.0161607
127	0xbd558478	-0.052128285
128	0x3dafd448	0.08585411
129	0x3d05862f	0.03259867
130	0x3d2ffa66	0.042963408
131	0x3cfebce3	0.031095928
132	0x3d279d5a	0.040921547
133	0xbe0b139d	-0.135817
134	0x3d0e7de7	0.03478804
135	0x39b399e2	0.00034256192
136	0xbe428057	-0.1899427
137	0x3d4550d1	0.048172776
138	0xbd48f839	-0.04906485
139	0xbca17186	-0.019707453
140	0xbde18c69	-0.11013109
141	0x3d82f370	0.06394088
142	0x3acc1648	0.0015570605
143	0x3e096a3f	0.13419436
144	0xbca2429b	-0.01980715
145	0xbd871f05	-0.065977134
146	0xbb33b8a3	-0.0027423284
147	0xbc160659	-0.009156787
148	0x3a735f38	0.0009283903
149	0xbe089471	-0.13337876
150	0xbd780eb6	-0.060560904
151	0xbcf1aaf4	-0.029500462
152	0xbd34a9a4	-0.044107094
153	0xbdb57a63	-0.08861234
154	0xbda9f947	-0.08299499
155	0x3de320b7	0.11090224
156	0xbcca7650	-0.024714619
157	0xbce72f81	-0.028220894
158	0x3d622cb0	0.0552184
159	0xbe7ec0b9	-0.24878205
160	0x3e0d1ad7	0.1377977
161	0xbc667fd5	-0.0140685635
162	0xbc68f759	-0.0142191285
163	0xbdde5e27	-0.10857802
164	0xbd84da09	-0.064868994
165	0xbe397f81	-0.18115045
166	0x3d32421b	0.043520074
167	0x3dbb2a7c	0.091389626
168	0xbdd8c685	-0.105847396
169	0x3d144feb	0.03620903
170	0xbc9d9f77	-0.019241078
171	0xbc57aafb	-0.0131633235
172	0x3da05336	0.07828371
173	0xbd95e873	-0.07319727
174	0x3cc650aa	0.024208385
175	0x3c990569	0.018679338
176	0xbe7a9648	-0.2447139
177	0xbdc80ca4	-0.09768036
178	0x3c8cfc90	0.017210275
179	0xbd0734b7	-0.033009257
180	0xbe0065fb	-0.12538902
181	0xbe53fa3f	-0.2070093
182	0x3ccf07b8	0.025272235
183	0xbe2e2044	-0.17004496
184	0xbd68530e	-0.056719832
185	0xbe210aea	-0.1572682
186	0xbd4b7d76	-0.049680196
187	0x3dfaa402	0.12238313
188	0xbdcd39ae	-0.10020767
189	0x3d1c505d	0.038162578
190	0x3cebb27b	0.02877163
191	0xbe412fd1	-0.18865897
192	0xb9afcf32	-0.00033532974
193	0x3c808231	0.01568708
194	0x3dbb6629	0.09150345
195	0xbd18720b	-0.037218135
196	0xbcbd0942	-0.023075704
197	0xbe47c389	-0.19508184
198	0x3d05a713	0.032630038
199	0xbd955df2	-0.07293309
200	0xbe4b98fa	-0.19882575
201	0xbcabfdd7	-0.020995064
202	0x39506f2b	0.00019877839
203	0x3d1aad1f	0.037762757
204	0xbd98ce52	-0.074612275
205	0x3da66bc8	0.081260264
206	0xbd663b3e	-0.05620884
207	0x3d25a964	0.040444747
208	0xbdaceb54	-0.08443323
209	0xbd7a2758	-0.061072677
210	0xbced5598	-0.028971478
211	0x3d908060	0.070557356
212	0x3d5e50f8	0.054276437
213	0xbde3d404	-0.11124423
214	0x3c766367	0.015038348
215	0x3d080851	0.033211056
216	0xbd7871ba	-0.060655333
217	0xbe3a5ed1	-0.18200232
218	0xbd8c015b	-0.06836196
219	0xbbb210f0	-0.005434148
220	0xbd053db0	-0.032529533
221	0x3c6f6505	0.014611487
222	0x3d8613f9	0.06546778
223	0xbe4c579e	-0.19955298
224	0x3cbc56c0	0.022990584
225	0xbd23c4ed	-0.039982725
226	0xbda089b5	-0.078387655
227	0xbde710ca	-0.11282499
228	0x3df730c0	0.12069845
229	0xbe030ade	-0.12797114
230	0x3d1bcd24	0.038037434
231	0x3d368f1f	0.044570085
232	0xbe2efad6	-0.17087874
233	0xbdb03326	-0.08603506
234	0xbda4443b	-0.080208264
235	0x3ce6e9a5	0.028187582
236	0xbd9399bf	-0.07207059
237	0x3cd9d8f6	0.026592713
238	0xbc88b5cf	-0.016688256
239	0x3b042855	0.0020165641
240	0xbda8a759	-0.08235044
241	0x3d770e5f	0.06031644
242	0x3dd26e51	0.102749474
243	0xbcd5360a	-0.026026744
244	0x3cf9e86f	0.03050634
245	0xbe30e8d8	-0.17276323
246	0x3d8552e9	0.065099545
247	0xbd4ac725	-0.049506325
248	0x3b9e1e78	0.0048254095
249	0x3d1b0330	0.037844837
250	0xbd8cf6ea	-0.068830326
251	0xbd801dfe	-0.062557206
252	0x3d19b4d8	0.03752598
253	0xbd05595f	-0.032555934
254	0xbc8b40b6	-0.01699863
255	0xbde2e4a4	-0.11078766

sequential/conv2d_3/Conv2D f4 [128, 3, 3, 64]
0	0x3c40a217	0.011757395
1	0xbd700da5	-0.058606762
2	0x3d165520	0.036702275
3	0x3c403497	0.011731288
4	0x3cf3e6ca	0.029773135
5	0xbcd2a6e8	-0.025714353
6	0x3cedeb02	0.029042725
7	0xbb9f68ba	-0.0048647793
8	0x3cfb4c42	0.030676011
9	0xbd0d789f	-0.03453886
10	0xbd4c6dd1	-0.049909417
11	0x3d0e12af	0.034685787
12	0x3c9e8f37	0.0193554
13	0xbd070c5e	-0.03297078
14	0x3d03c78f	0.032172736
15	0xbd824a17	-0.06361788
16	0xbc4e0591	-0.012574569
17	0x3d2f4f5e	0.0428003
18	0x3c30dc4e	0.010794712
19	0xba5227bd	-0.0008016786
20	0x3bc45d31	0.0059925546
21	0xbd4dd77e	-0.050254337
22	0xbc42110b	-0.011844884
23	0xbd77959b	-0.06044541
24	0xbbaf7238	-0.005354192
25	0x3a291505	0.00064499705
26	0xbc53e773	-0.0129336
27	0x3d3b857e	0.045781605
28	0x3cce6a6c	0.02519723
29	0x3d22a755	0.03971036
30	0xbc9d77ee	-0.019222226
31	0xbd4567bc	-0.048194632
32	0x3baa94f7	0.0052057463
33	0xbb2d1617	-0.0026410872
34	0x3c15e6dc	0.009149279
35	0xbd0c15fa	-0.034200646
36	0xbb0601f5	-0.0020447944
37	0x3c92977c	0.017894499
38	0xbd9e480f	-0.07728588
39	0xbb4544b6	-0.003010077
40	0xbc7c18b8	-0.015386753
41	0xbc9c5a9c	-0.019086175
42	0x3b224af3	0.0024763911
43	0xbceb0891	-0.028690608
44	0x3cc4d0dd	0.024025375
45	0xbb82e39a	-0.0039944174
46	0xbcdad435	-0.026712516
47	0x3d0dadaf	0.034589466
48	0xbd03c16d	-0.032166887
49	0xbcdfd894	-0.027324952
50	0x3c8da0e0	0.017288625
51	0x3bc314e8	0.00595342
52	0x3d111192	0.035417147
53	0x3acc875a	0.0015604303
54	0xbd25501c	-0.0403596
55	0xbd4a381a	-0.04936991
56	0x3c2ac29a	0.010422373
57	0x3d04cf3e	0.032424204
58	0xbc553e28	-0.0130153075
59	0x3c872ca7	0.016500784
60	0x3c8e6d30	0.017386049
61	0xbd2e639a	-0.042575456
62	0xbd6e12bc	-0.058123335
63	0xbd11e31d	-0.035616983
64	0x3d1f62b8	0.038912505
65	0x3bf68afb	0.007523892
66	0xbd420905	-0.047371883
67	0xbd5e645c	-0.05429493
68	0xbbe728aa	-0.007054408
69	0xbce97cad	-0.028501833
70	0x3c625a30	0.013815448
71	0xbcb08d77	-0.02155183
72	0xbd431c78	-0.04763457
73	0xbd51844a	-0.05115155
74	0xbcfd4740	-0.030917764
75	0xbd30ee85	-0.04319622
76	0xbca5655c	-0.020189933
77	0xbcb8eaa2	-0.02257282
78	0x3d027f5d	0.031859744
79	0xbd5dbcbb	-0.054135066
80	0xbb8fc83b	-0.004387883
81	0xbd38f352	-0.045153923
82	0xbd4d7bb7	-0.05016681
83	0xbd064394	-0.03277929
84	0xbd86df40	-0.0658555
85	0xbc36b2de	-0.011151044
86	0xbd359e90	-0.04434067
87	0xbc653285	-0.013989096
88	0xbd01c48c	-0.031681582
89	0x3cdb5dcc	0.026778124
90	0xbda7d904	-0.08195689
91	0xbd706fdc	-0.058700427
92	0x3c759c8e	0.014990939
93	0xbd7592ec	-0.05995457
94	0xbd66a86e	-0.05631297
95	0x3bad3789	0.0052861613
96	0xbd7c3511	-0.061574046
97	0xbd94f265	-0.072727956
98	0x3d7c42bb	0.061587077
99	0x3c00f10e	0.007869972
100	0xbd56dc43	-0.05245615
101	0xbd872ff7	-0.066009454
102	0x3c6374c8	0.013882823
103	0xbc3bd10a	-0.011463413
104	0x3d3fbe85	0.046812553
105	0xbca12010	-0.019668609
106	0xbba024a9	-0.0048871827
107	0xbd056949	-0.03257111
108	0x3c5ddbfd	0.013541219
109	0xbcf4c14c	-0.029877327
110	0x3cb231eb	0.021752318
111	0x3d5416ca	0.051779546
112	0xbb04a588	-0.0020240266
113	0x3c2bbd10	0.010482088
114	0xbbd009e1	-0.006348834
115	0xbd31b4c0	-0.043385267
116	0xbd9d372a	-0.07676537
117	0x3cfe4a49	0.031041281
118	0xbc0539f9	-0.008131498
119	0x3d66ed36	0.056378566
120	0x3c9b524b	0.018960139
121	0x3d259667	0.040426638
122	0xbcd72954	-0.026264824
123	0xbd044541	-0.03229261
124	0xbd27bb88	-0.040950328
125	0xbd2f2931	-0.042763893
126	0xb9624da5	-0.00021581964
127	0x3c4b174b	0.01239569
128	0xbdd227d4	-0.10261503
129	0x3d113956	0.03545507
130	0xbd59d267	-0.05317917
131	0xbbf6ac21	-0.0075278436
132	0x3cb94b8f	0.022619037
133	0xbd30414f	-0.043031033
134	0xbc34b744	-0.011030022
135	0xbd07e115	-0.03317364
136	0x3cc3c33d	0.023896808
137	0xbc67c3d3	-0.014145809
138	0xbd52670b	-0.0513678
139	0xbc5b4da1	-0.013385207
140	0x3d8d08db	0.06886455
141	0xbbc6c70a	-0.006066208
142	0x3c0e407f	0.008682369
143	0x3c13d3ac	0.0090226345
144	0x3d15f290	0.03660828
145	0xbc453abc	-0.012037929
146	0x3ccea776	0.025226336
147	0xbce49caf	-0.027906744
148	0x3b64b34a	0.0034896904
149	0xbc8065fd	-0.015673632
150	0xbda584c1	-0.080819614
151	0x3b957488	0.0045610107
152	0xbcdd7f50	-0.027038246
153	0x3ce6a3ee	0.02815434
154	0xbd462a4b	-0.048380177
155	0x3c9de6c9	0.019275086
156	0xbd00bf2d	-0.03143232
157	0x3cd3146f	0.02576658
158	0xbd453b4c	-0.048152253
159	0xbd4f289e	-0.050575845
160	0xbcf28ff9	-0.029609667
161	0xbcad5a10	-0.02116111
162	0xbbbd630c	-0.0057796296
163	0xbd473a70	-0.048639715
164	0xbd375b18	-0.04476461
165	0xbb5c4c02	-0.003361464
166	0xbcca1cc6	-0.024671923
167	0x3c2df05c	0.010616388
168	0xbbb077c3	-0.0053853705
169	0xbd1a0621	-0.0376035
170	0x3acf5b1f	0.0015820003
171	0xbd089bb8	-0.03335163
172	0xbd0e1ae3	-0.03469361
173	0x3c053e61	0.008132548
174	0xbc909141	-0.017647387
175	0x3c90e6d2	0.017688189
176	0xbd866511	-0.06562246
177	0x3d611085	0.054947395
178	0x3b6bd854	0.0035987096
179	0x3c816c60	0.015798748
180	0xbdc5936b	-0.09647258
181	0x3d2c8fc2	0.042129286
182	0x3d076b79	0.03306148
183	0xbcb0618f	-0.021530895
184	0xbb9bb420	-0.004751697
185	0xbb8fd5e3	-0.004389511
186	0x3c9603aa	0.018312294
187	0x3d1e86eb	0.038702887
188	0x3cba0522	0.022707526
189	0x3d200206	0.03906443
190	0xbc72cf2d	-0.014819902
191	0xbc97c750	-0.018527657
192	0x3c874c43	0.016515857
193	0xbd219a41	-0.03945375
194	0x3b0b97d1	0.0021300206
195	0xbb7e4125	-0.0038796153
196	0xbc11b985	-0.008894329
197	0x3ba98514	0.005173335
198	0xbb9ca081	-0.0047798757
199	0xbd0629dc	-0.032754764
200	0x3c58d18a	0.013233552
201	0xbcd81f29	-0.026382046
202	0xbc9c5679	-0.019084202
203	0x3d22dd59	0.039761875
204	0xbc198161	-0.009369225
205	0xbd4bee69	-0.049787913
206	0xbd356f26	-0.044295453
207	0xbd2bd875	-0.041954476
208	0x3c4879dc	0.012236085
209	0x3d3c5bef	0.045986112
210	0xbd599b64	-0.053126708
211	0x3d31c1e4	0.0433978
212	0xbd8c513c	-0.06851432
213	0xbcd4cd55	-0.025976816
214	0x3a83dd44	0.0010060449
215	0xbd7186e1	-0.05896652
216	0xbd5ecbc4	-0.054393545
217	0x3c6cb826	0.014448201
218	0xbcabbe31	-0.020964714
219	0x3d599ec9	0.053129945
220	0x3d4a7338	0.049426287
221	0x3bac67b7	0.005261387
222	0xbc624520	-0.013810426
223	0x3ae44eb9	0.0017418481
224	0x3b00dbea	0.001966233
225	0xbcb95508	-0.022623554
226	0xbd734902	-0.059395798
227	0x3d00e001	0.031463627
228	0x3c07e66a	0.008294681
229	0xbdc90593	-0.09815516
230	0xbb7e4e2b	-0.0038803916
231	0x3cfa1767	0.030528737
232	0xbd5ba152	-0.053620644
233	0xbd1354a0	-0.035969377
234	0x3d1eb92d	0.038750816
235	0x3c9fb010	0.019493133
236	0xbd8f975b	-0.07011291
237	0xbd074cbb	-0.03303216
238	0xbd1c5973	-0.038171243
239	0xbd27758d	-0.04088359
240	0xbd7a2df3	-0.061078977
241	0x3d34d7d3	0.04415114
242	0x3cf189fd	0.029484743
243	0xbd2692e6	-0.040667437
244	0x3cbcfaaa	0.023068745
245	0xbdabd0b9	-0.0838942
246	0x3c82acac	0.015951477
247	0xbd9abcc0	-0.075555325
248	0xbc3914f3	-0.011296499
249	0xbd4f45b3	-0.05060358
250	0x3cfb53dd	0.030679638
251	0xbd110532	-0.035405345
252	0xbda0eb33	-0.07857361
253	0xbc40f261	-0.011776538
254	0xbd19ff40	-0.03759694
255	0xbcd445c9	-0.025912182

sequential/dense/BiasAdd/ReadVariableOp f4 [128]
0	0xbc15203d	-0.0091019245
1	0xbd110d85	-0.035413284
2	0xbc8727e2	-0.01649851
3	0xbc36307b	-0.011119957
4	0xbc0f77db	-0.008756603
5	0xba88ee77	-0.0010447045
6	0xbcbd053d	-0.023073787
7	0xbd26d919	-0.040734384
8	0xbc097c18	-0.008391403
9	0x3cb534d6	0.02211992
10	0xbc9f6fca	-0.019462485
11	0xbd166a10	-0.036722243
12	0x3c79d1ea	0.015247801
13	0xbb7af946	-0.0038295551
14	0xbbd5e8f3	-0.006528014
15	0xbcbcd1a5	-0.023049185
16	0x3d128711	0.03577334
17	0xbca91d9e	-0.020644005
18	0xbabc4aa8	-0.0014365511
19	0xbd0dfdf1	-0.034666006
20	0xba3ad974	-0.000712774
21	0xbc6c6ecd	-0.014430714
22	0xbcc5abc4	-0.024129756
23	0xbc3f24a1	-0.011666448
24	0xbcada12a	-0.021195013
25	0xbcca0522	-0.02466065
26	0x3d1dc2e2	0.038515933
27	0x3cbcb7dc	0.02303689
28	0xbc6512f5	-0.0139815705
29	0xbca548dc	-0.020176344
30	0x3ce8f06a	0.02843495
31	0xbc13a371	-0.009011135
32	0xba812ddf	-0.000985559
33	0x3c990581	0.018679382
34	0x3ccb3cbc	0.024809234
35	0xbc9f0234	-0.01941023
36	0x3c1c32c7	0.009533591
37	0xbcd770b5	-0.02629886
38	0xba87c161	-0.0010357314
39	0xbc3c53fc	-0.011494633
40	0x3bbc3b95	0.0057444074
41	0xbaa26e07	-0.001239241
42	0xbb9c4a0b	-0.004769569
43	0x3caebedf	0.021331249
44	0xbd09bfca	-0.03363017
45	0xbce56422	-0.028001849
46	0xbc9f0290	-0.019410402
47	0xbd0996a4	-0.033590928
48	0x3c925218	0.017861411
49	0xbcc8a002	-0.02449036
50	0xbc08795a	-0.008329714
51	0xbc1d4875	-0.009599795
52	0x3cb8de4d	0.022566939
53	0xbc61f0ba	-0.013790304
54	0xbc44b5f1	-0.012006269
55	0xbce57e9d	-0.028014475
56	0xbd09069b	-0.033453565
57	0x3c1af605	0.00945807
58	0xbcc14354	-0.023591675
59	0xbcdf9a2f	-0.0272952
60	0x3ce3253e	0.02772772
61	0xbaaa611c	-0.0012998912
62	0xbc987d49	-0.018614428
63	0x3cbaf40f	0.022821454
64	0xbceda5dd	-0.029009754
65	0xbc39f3f4	-0.011349667
66	0xbcd9881e	-0.026554164
67	0xbd3a30a4	-0.045456544
68	0xbc390188	-0.011291869
69	0xbcbabb29	-0.022794323
70	0xbd15d52d	-0.036580253
71	0xbbd06fff	-0.006361007
72	0xbc960f17	-0.018317742
73	0xbb9e3966	-0.00482862
74	0x3ce19e6b	0.02754136
75	0xbc07963f	-0.008275568
76	0x3b7860cb	0.003789949
77	0x3d2c1d64	0.042020217
78	0xbc20ce9a	-0.009814883
79	0xbcd0b314	-0.025476016
80	0xbcbd24f4	-0.02308891
81	0xbcc4b77b	-0.024013272
82	0xbcdf7ed8	-0.027282164
83	0x3bf558e0	0.0074874014
84	0xbbce1995	-0.0062896707
85	0x3c1d77c7	0.009611077
86	0xbb46b474	-0.003031996
87	0xbbfbe54c	-0.0076872464
88	0xbc92c539	-0.017916309
89	0xbc6eec45	-0.014582698
90	0xbceae1b6	-0.02867208
91	0x3d20bc60	0.03924215
92	0xbaab1e79	-0.0013055346
93	0xbc499d40	-0.012305558
94	0x3c0540c8	0.008133121
95	0xbd392fdb	-0.045211654
96	0xba780daa	-0.00094624853
97	0x3ccf3836	0.025295358
98	0xbc269b0f	-0.010168805
99	0x3bc0a358	0.005878847
100	0x3a373ab0	0.0006989641
101	0xbca62313	-0.020280397
102	0xbc91fb83	-0.017820125
103	0xbd2136b5	-0.039358813
104	0xbc506742	-0.012719931
105	0xbc18192d	-0.009283346
106	0xbd3d2a51	-0.046182934
107	0x3cc3bbc6	0.023893248
108	0x3b1d3d35	0.002399278
109	0xbcbc268e	-0.022967603
110	0xbbd9b64b	-0.0066440455
111	0xbc2637fa	-0.010145182
112	0xbc9861d0	-0.018601328
113	0xba8401e5	-0.0010071365
114	0x3cc78f37	0.024360282
115	0xbc56b71f	-0.013105183
116	0xbc877d2d	-0.01653918
117	0xbaefbf63	-0.0018291291
118	0xbc19f5b8	-0.009396963
119	0x3cd0e1bc	0.025498264
120	0xbc811f22	-0.015761916
121	0xbc932bbd	-0.017965192
122	0xbc985c10	-0.018598586
123	0xbc985eb6	-0.01859985
124	0xbc91cdc6	-0.017798316
125	0xbd042834	-0.032264903
126	0x3d4c7eb8	0.049925536
127	0xb983bdf4	-0.00025127793

sequential/dense_1/BiasAdd/ReadVariableOp f4 [7]
0	0x3c0c30e5	0.008556579
1	0x3d769a49	0.06020573
2	0xbda07e58	-0.07836598
3	0x3cfda288	0.03096129
4	0x3dafeef9	0.08590502
5	0xbe2d55a8	-0.16927207
6	0xbc95e948	-0.018299714

sequential/dense/MatMul f4 [128, 128]
0	0xbc66109c	-0.014042046
1	0x3c2710b6	0.010196855
2	0x3c4dab75	0.012553086
3	0x3db0f44e	0.086403474
4	0x3dbaed0d	0.09127245
5	0x3e10b4d0	0.14131474
6	0x3e027540	0.1274004
7	0xbdf9d948	-0.12199646
8	0x3dd61ea8	0.10455066
9	0xbd65b1b6	-0.05607768
10	0xbbea68f9	-0.007153627
11	0x3daa5cb0	0.0831846
12	0x3d823a70	0.06358802
13	0xbdd26ed0	-0.10275042
14	0x3d894913	0.06703391
15	0xbd7ac489	-0.061222587
16	0xbdc3b81b	-0.095566
17	0x3d6cfd92	0.05785901
18	0xbdc7f592	-0.09763636
19	0xbe52ed0d	-0.2059824
20	0x3ce984da	0.028505731
21	0x3d12e990	0.035867274
22	0x3e544efc	0.20733255
23	0xbdff40ed	-0.124635555
24	0xbdccbbd4	-0.09996763
25	0xbd1e1c57	-0.038601246
26	0x3c97c1ba	0.018524993
27	0xbd27e115	-0.04098614
28	0xbd9e55ce	-0.0773121
29	0x3cf60c1c	0.030035071
30	0xbe267f01	-0.16259386
31	0x3e1b1e91	0.15148379
32	0xbe5eb892	-0.21750095
33	0x3dda92cb	0.1067253
34	0xbae9ccca	-0.0017837521
35	0x3d7fc5a4	0.062444344
36	0xbe0dac91	-0.1383536
37	0xbd0cf4fc	-0.034413323
38	0x3cb6b173	0.022301411
39	0x3e428542	0.18996146
40	0xbe08a14b	-0.13342778
41	0xbc33dbb2	-0.010977672
42	0x3e340895	0.17581399
43	0xbd5e7c7d	-0.05431794
44	0x3d59fabf	0.053217646
45	0x3d306b41	0.043071035
46	0xbd9c04fe	-0.0761814
47	0xbe107a04	-0.14109045
48	0x3e23815c	0.15967315
49	0x3c1eccc2	0.009692373
50	0xbd989da0	-0.074519396
51	0x3dbab870	0.0911721
52	0x3db64995	0.089007534
53	0xbc369ff1	-0.011146531
54	0x3d5ee977	0.05442187
55	0x3ded5a7a	0.11589523
56	0xbdb249d8	-0.08705491
57	0xbd437949	-0.04772309
58	0x3c9208f9	0.017826544
59	0xbe595db6	-0.21227154
60	0xbdb3a8a9	-0.08772404
61	0xbd9c1a1c	-0.076221675
62	0xbd0c8990	-0.034310877
63	0xbe0d7b92	-0.1381667
64	0xbd0ccf33	-0.034377288
65	0x3d011f22	0.03152383
66	0x3e1de696	0.15419993
67	0xbdb07993	-0.086169384
68	0x3dbc99d4	0.09209028
69	0x3e056059	0.13025035
70	0xbe10386d	-0.14084025
71	0x3dbf14e5	0.09330157
72	0x3dba2825	0.09089688
73	0xbd88464c	-0.06654033
74	0xbbb0e5cb	-0.005398487
75	0x3deba696	0.11506383
76	0x3d66e631	0.05637187
77	0xbd305d91	-0.043057982
78	0x3e148b47	0.14506255
79	0x3e1a46d0	0.15066075
80	0xbb144044	-0.0022621313
81	0xbdf4c1d8	-0.11951035
82	0xbc290e79	-0.010318392
83	0x3e52ef12	0.2059901
84	0xbc88f6fe	-0.016719338
85	0x3dbc823d	0.092045285
86	0xbcfc2afc	-0.030782215
87	0x3e0f2ae3	0.13981204
88	0xbe8d2d40	-0.27573586
89	0x3da902a8	0.0825246
90	0x3dde3ff7	0.10852044
91	0xbe09dcb4	-0.13463098
92	0xbc51cb05	-0.012804751
93	0xbc9bd3e6	-0.01902194
94	0x3d5c0118	0.05371198
95	0x3d2e5d27	0.042569306
96	0x3e0174e3	0.12642245
97	0x3d437a6d	0.047724176
98	0xbc77be78	-0.015121095
99	0xbcc36ce4	-0.023855634
100	0x3e4fe31a	0.20301476
101	0xbe2bc289	-0.16773428
102	0x3d34a726	0.044104718
103	0x3e0f6443	0.1400309
104	0x3e520fb2	0.205138
105	0x3dc7611c	0.09735319
106	0x3cbba77d	0.022907013
107	0x3e3cf909	0.18454374
108	0x3d495e38	0.04916212
109	0x3da3a1c5	0.079898395
110	0xbda0d4eb	-0.07853111
111	0xbd784606	-0.060613655
112	0xbdaf4118	-0.085573375
113	0x3e250fde	0.16119334
114	0xbdc67270	-0.09689796
115	0xbc4ccb8a	-0.012499699
116	0xbcd90cb0	-0.026495308
117	0x3d8dbfb9	0.06921334
118	0xbdb03fd6	-0.08605926
119	0xbd77604a	-0.060394563
120	0x3d238fa1	0.039931897
121	0xbe0ecf91	-0.13946368
122	0x3d8edf19	0.06976146
123	0xbdb67ffe	-0.08911131
124	0x3e180334	0.14844972
125	0xbe4e3cca	-0.20140377
126	0x3d3c36ef	0.045950826
127	0x3d919924	0.071092874
128	0xbd2a7851	-0.04161865
129	0xbd8d2e6b	-0.06893619
130	0xbd9f01db	-0.07764026
131	0x3db5839f	0.08862995
132	0xbc832e80	-0.016013384
133	0x3d9692b0	0.07352197
134	0xbdb234df	-0.087014906
135	0xbe1483cd	-0.14503403
136	0x3e0c01d3	0.13672571
137	0xbddef951	-0.10887397
138	0xbdbf9411	-0.09354413
139	0x3bf60f09	0.0075091165
140	0x3e067d7c	0.13133806
141	0x3d704c69	0.05866662
142	0xbe2550ad	-0.16144057
143	0x3ccdae48	0.025107518
144	0xbcb1ca97	-0.021703048
145	0xbe2671b3	-0.1625431
146	0x3e041cc4	0.12901598
147	0xbcd8fbd5	-0.02648727
148	0xbe3453f0	-0.17610145
149	0xbe5256d6	-0.20540938
150	0xbe142198	-0.1446594
151	0x3c49aca7	0.01230923
152	0x3dde3dfe	0.10851668
153	0x3d987dcc	0.07445869
154	0x3de81d41	0.11333705
155	0x3d250eac	0.040297195
156	0x3e3a8401	0.18214418
157	0x3df196ee	0.11796366
158	0xbd35e578	-0.04440829
159	0xbdd10b02	-0.10207178
160	0x3d81f2fd	0.063451745
161	0x3d938bb8	0.072043836
162	0x3bb69cb7	0.005572881
163	0x3d3e339f	0.04643595
164	0xbdcfb63d	-0.10142181
165	0x3df355a2	0.118815675
166	0x3dad96ff	0.08476066
167	0x3dc54c3e	0.09633683
168	0x3cc525d4	0.02406589
169	0xbdee06f9	-0.11622424
170	0xbd576ae0	-0.05259216
171	0xbadd433e	-0.0016881002
172	0xbd598f36	-0.053115092
173	0x3dc13309	0.09433562
174	0x3d9323c5	0.07184557
175	0x3d39a3cb	0.04532222
176	0xbd8ac81b	-0.06776448
177	0xbd65b76f	-0.05608314
178	0x3c96669f	0.01835948
179	0x3d08fd9c	0.033444986
180	0xbe0f9593	-0.14021902
181	0x3d7ab171	0.061204378
182	0x3b94bcc7	0.0045391056
183	0xbddb0148	-0.10693604
184	0x3cc6f685	0.024287472
185	0xbd4a3424	-0.04936613
186	0x3dc4be7b	0.09606644
187	0xbd3a6852	-0.045509644
188	0x3b1328b2	0.0022454676
189	0xbe198558	-0.14992273
190	0x3c3a9472	0.011387931
191	0x3d2ea7a5	0.042640347
192	0xbd6c87fc	-0.057746872
193	0x3c0a3d18	0.008437417
194	0xbd63c43d	-0.05560707
195	0x3c349626	0.011022126
196	0xbe03c27d	-0.1286716
197	0xbe008b0d	-0.12553044
198	0xbd00ca01	-0.031442646
199	0xbb666ef6	-0.0035161353
200	0xbdbbd141	-0.091707714
201	0xbc35b72f	-0.011091038
202	0xbd73e7ff	-0.05954742
203	0xbd90d758	-0.070723236
204	0x3cf949bb	0.030430665
205	0xbcbdb158	-0.023155853
206	0xbe1cdf1a	-0.15319481
207	0xbb4785a4	-0.0030444646
208	0x3cd314d0	0.02576676
209	0x3ddf9753	0.10917535
210	0xbcf29ea1	-0.029616656
211	0xbd14dd9a	-0.03634415
212	0xbd05b881	-0.03264666
213	0x3e09f319	0.1347164
214	0x3e69bdb4	0.22826272
215	0xbc358f9a	-0.011081601
216	0x3c1e70ea	0.0096704755
217	0xbe1a106b	-0.15045325
218	0xbcc61f04	-0.024184711
219	0xba80d2be	-0.0009828431
220	0x3d71ab9c	0.05900155
221	0x3d5347e1	0.05158222
222	0x3d6a3d6f	0.057187494
223	0x3bb34011	0.005470284
224	0xbdcd285c	-0.100174636
225	0x3cb194a9	0.021677332
226	0xbe09e06e	-0.1346452
227	0x3ce78aac	0.028264366
228	0xbe11bbdf	-0.14231823
229	0x3de71d9c	0.112849444
230	0x3d9501ec	0.07275757
231	0x3da1d47b	0.079018556
232	0x3bef41d0	0.0073015466
233	0x3e44033f	0.19141863
234	0x3dab4090	0.08361924
235	0x3d81c59b	0.063365184
236	0xbe0e8571	-0.13918091
237	0x3e132f19	0.14373435
238	0xbe398819	-0.18118323
239	0xbc5c06e8	-0.013429381
240	0xbdcda959	-0.10042066
241	0x3d406202	0.046968468
242	0xbe1520b2	-0.14563254
243	0x3dd34ebf	0.10317754
244	0x3e39c2e8	0.18140757
245	0x3e47fe6e	0.19530651
246	0x3d4ed6e1	0.050497893
247	0xbd87a042	-0.066223636
248	0x3c9c3912	0.019070182
249	0xbc60e35b	-0.013726081
250	0xbd1da6e0	-0.038489223
251	0xbcdbf202	-0.026848797
252	0x3d51ff30	0.051268756
253	0xbe443eb6	-0.19164547
254	0xbcb6604f	-0.02226272
255	0xbc2c9269	-0.010532954

sequential/dense_1/MatMul f4 [7, 128]
0	0xbe5846d6	-0.21120772
1	0xbdaf88fb	-0.08571049
2	0xbd5301ab	-0.051515263
3	0x3e02337d	0.12714954
4	0xbd0464fe	-0.032322876
5	0x3e6d9f7a	0.23205367
6	0x3d4dfb78	0.050288647
7	0xbd499c47	-0.049221303
8	0x3e39bcfd	0.181385
9	0x3e3eb41e	0.18623397
10	0x3c21461e	0.009843377
11	0x3ccc50e5	0.024940917
12	0x3d2bbfd2	0.04193098
13	0xbbb2a897	-0.0054522264
14	0x3de3d729	0.11125023
15	0x3dcc1072	0.09964074
16	0x3dd3de1e	0.103451
17	0xbc8826d1	-0.016620072
18	0x3df60af7	0.1201381
19	0x3dd9859d	0.10621188
20	0xbe51f281	-0.20502664
21	0xbe16d3d7	-0.14729248
22	0xbc9ae159	-0.018906282
23	0xbd934f8d	-0.071929075
24	0xbdb379cf	-0.087634675
25	0xbe0766f3	-0.13222866
26	0x3e32aa61	0.17447807
27	0xbdcff89e	-0.10154842
28	0xbe14bea4	-0.14525849
29	0xbc280b25	-0.010256563
30	0x3e7393fc	0.2378692
31	0x3db47556	0.088114426
32	0x3d8151e6	0.06314449
33	0xbdc31ada	-0.09526606
34	0x3e2a82e9	0.16651501
35	0xbdf2b33f	-0.11850595
36	0xbe4d17ca	-0.20028606
37	0x3cb903ae	0.022584762
38	0x3cba1d0f	0.022718934
39	0x3deba21b	0.115055285
40	0xbe2e6471	-0.17030503
41	0x3d2e4cfd	0.04255389
42	0xbdcf205f	-0.10113596
43	0x3e1ed688	0.15511525
44	0xbc3f879d	-0.011690048
45	0x3d2bf288	0.041979343
46	0x3e41da35	0.18930896
47	0x3d2586ed	0.04041188
48	0x3e513d41	0.20433523
49	0x3c321a13	0.010870474
50	0xbde101b2	-0.109866515
51	0xbdcef8f9	-0.101060815
52	0xbd06aff6	-0.032882653
53	0xbbe52525	-0.0069929534
54	0x3ddefdc7	0.10888248
55	0xbe4674ad	-0.19380446
56	0x3e20a8ec	0.15689439
57	0x3db380ae	0.08764778
58	0x3b494a35	0.0030714397
59	0x3d8610a7	0.06546145
60	0x3dc3c598	0.095591724
61	0xbe88020f	-0.2656407
62	0xbd8f3ebf	-0.0699439
63	0x3de8ae24	0.1136134
64	0xbdd707da	-0.104995444
65	0xbe59e38b	-0.21278207
66	0x3e1c22c1	0.15247633
67	0xbdcdb1aa	-0.10043652
68	0xbe552def	-0.20818304
69	0x3e3207f3	0.17385845
70	0x3d04d555	0.03243001
71	0x3e006e3f	0.12542056
72	0x3c230eab	0.009952228
73	0x3dd413a3	0.10355308
74	0xbe6ec02a	-0.23315492
75	0xbdfd2ad7	-0.12361687
76	0x3cfaa875	0.030597905
77	0x3e141f5a	0.14465085
78	0xbe0c2bdd	-0.13688608
79	0xbdd1d2d9	-0.10245294
80	0x3db6d540	0.08927393
81	0x3d9d7bb3	0.076896094
82	0x3d39bf6e	0.045348577
83	0xbdafa518	-0.08576411
84	0x3e6adc72	0.22935656
85	0xbc2fa504	-0.010720495
86	0x3dde8808	0.1086579
87	0xbd4b265c	-0.04959713
88	0xbd44889f	-0.047981855
89	0x3e4417b8	0.19149673
90	0xbdbde483	-0.09272101
91	0xbdf9228e	-0.12164794
92	0xbdbce298	-0.09222907
93	0xbe3896ec	-0.18026322
94	0xbcf230a9	-0.029564219
95	0xbe0399f9	-0.12851705
96	0xbe4713e5	-0.19441183
97	0xbd5fde9e	-0.054655664
98	0x3c74befd	0.014938113
99	0x3e5ecbc5	0.2175742
100	0x3ca9d044	0.020729192
101	0x3e475ba5	0.19468553
102	0x3d53924a	0.051653184
103	0xbdd4edde	-0.10396932
104	0x3daa8aa2	0.08327223
105	0xbe1a62b2	-0.15076712
106	0xbdfe527e	-0.12418078
107	0x3e028f8f	0.12750076
108	0x3e623ac9	0.22092737
109	0x3bcfce2d	0.0063417167
110	0x3cc91da8	0.024550274
111	0x3db62159	0.08893079
112	0xbe3f72ed	-0.18696184
113	0x3e2f6358	0.1712774
114	0xbda06a2f	-0.07832753
115	0xbdac2476	-0.08405392
116	0xbe211667	-0.15731202
117	0xbe6703d7	-0.22560059
118	0x3e479116	0.1948894
119	0x3e1f87ce	0.15579149
120	0x3d250494	0.04028757
121	0xbe34e31f	-0.17664765
122	0xbe210e79	-0.15728177
123	0xbdc3066c	-0.09522709
124	0x3e2c9240	0.16852665
125	0x3c469a68	0.012121774
126	0xbd90cbff	-0.07070159
127	0xbc92a4a3	-0.01790077
128	0xbdea0d0a	-0.11428268
129	0xbe76409d	-0.24048086
130	0xbc16385e	-0.009168712
131	0xbe493a57	-0.19651161
132	0xbe094ec7	-0.13408957
133	0xbe4dcb85	-0.20097168
134	0x3e04dd1e	0.12974975
135	0xbbc13ee0	-0.005897388
136	0xbe682847	-0.22671615
137	0xbcc9bf4b	-0.024627348
138	0xbe2fe9cc	-0.1717903
139	0xbde50d60	-0.11184192
140	0xbe308ebf	-0.17241953
141	0xbd87ac3b	-0.06624647
142	0xbe1ccd5a	-0.1531271
143	0x3dc50470	0.09619987
144	0x3d570ea9	0.052504215
145	0x3ac5589a	0.0015056313
146	0x3d98e3f6	0.07465355
147	0x3de94f7d	0.11392114
148	0x3e329d40	0.17442799
149	0x3e21cf46	0.15801725
150	0xbdcd9d86	-0.10039811
151	0x3dfc64c8	0.1232391
152	0xbe6d0ccb	-0.23149411
153	0xbd1bba85	-0.038019676
154	0xbd1bf06d	-0.038071085
155	0x3cbad652	0.022807274
156	0x3cdaed04	0.026724346
157	0x3c6c2cc4	0.01441497
158	0x3e1de42d	0.15419073
159	0x3e09cd8e	0.13457319
160	0x3db6d568	0.08927423
161	0xbd2ebd4f	-0.042661007
162	0xbe04cb72	-0.12968233
163	0x3cc055f2	0.023478482
164	0x3da8556a	0.082194164
165	0x3deb903a	0.115021184
166	0xbb837bde	-0.004012569
167	0x3d76ad5f	0.060223933
168	0xbe78404b	-0.24243276
169	0xbcabdd47	-0.020979537
170	0xbda31639	-0.07963223
171	0xbe8500c3	-0.25977144
172	0x3c7a272b	0.015268127
173	0xbc5d235d	-0.013497201
174	0xbe00a5e3	-0.12563281
175	0x3def7ee5	0.11694125
176	0x3ddcd96e	0.10783659
177	0x3d7ed0b6	0.06221076
178	0xbe60012b	-0.21875446
179	0x3dc68d07	0.096948676
180	0x3dbdac04	0.09261325
181	0x3e571dbe	0.2100744
182	0xbd28d6e7	-0.04122057
183	0x3c20d664	0.00981674
184	0xbdc03c6f	-0.09386527
185	0xbe2616f4	-0.16219693
186	0xbdd2b79d	-0.10288928
187	0x3e4cdf07	0.20006953
188	0x3d15c148	0.03656128
189	0xbea8133e	-0.3282718
190	0xbddb1150	-0.106966615
191	0xbc9ea65c	-0.019366436
192	0x3df2342d	0.11826358
193	0x3dcba52c	0.099436134
194	0xbd997f03	-0.07494929
195	0x3dafd7c3	0.08586075
196	0x3a23fb7d	0.0006255431
197	0xbd6e1331	-0.05812377
198	0xbe481738	-0.19540107
199	0xbe75f53b	-0.24019329
200	0x3d22e01e	0.039764516
201	0xbe4fcebf	-0.20293711
202	0xbdd42455	-0.10358492
203	0xbdc9e8f5	-0.09858886
204	0xbcaea062	-0.02131671
205	0xbdf77746	-0.120832965
206	0x3df779c9	0.120837756
207	0xbcb21211	-0.02173713
208	0xbdf052a3	-0.11734512
209	0xbd4facf3	-0.050702047
210	0xbe60fea6	-0.2197214
211	0x3d937372	0.07199754
212	0xbe0bbe1f	-0.13646744
213	0xbd65d273	-0.056108903
214	0xbce6102f	-0.028083889
215	0xbe37f189	-0.17963232
216	0xbe31bd7a	-0.17357436
217	0x3e5249be	0.20535943
218	0x3b99baae	0.0046914434
219	0x3e0cfd9f	0.13768624
220	0x3da062c5	0.07831339
221	0x3e712f85	0.23553284
222	0xbe2e4949	-0.17020144
223	0xbde0e9c3	-0.109820865
224	0xbdf3f6d9	-0.11912317
225	0xbe890f3b	-0.26769432
226	0x3db01404	0.08597568
227	0x3d1f79b9	0.038934443
228	0x3e868696	0.26274556
229	0xbcd54648	-0.02603449
230	0xbd563ed5	-0.052306015
231	0x3e3fae03	0.18718724
232	0xbe7ca216	-0.24671206
233	0xbe2dc19c	-0.16968387
234	0x3d504678	0.050848454
235	0xbd8a292c	-0.06746134
236	0xbd6111a4	-0.054948464
237	0x3dfe39a9	0.124133416
238	0xbc4bdec6	-0.01244325
239	0xbe31b0dd	-0.17352624
240	0x3e244458	0.16041696
241	0xbe2f319e	-0.17108771
242	0xbd02b119	-0.031907175
243	0x3d40038d	0.046878386
244	0xbe228196	-0.15869746
245	0xbd3a8a1f	-0.04554188
246	0xbe0acbf4	-0.13554364
247	0xbe5e3a51	-0.21701933
248	0x3e17c9c3	0.1482306
249	0x3dbcb789	0.09214694
250	0xbe7baa84	-0.24576765
251	0xbe8a860e	-0.270554
252	0x3ce994ec	0.028513394
253	0x3e2cae5a	0.16863385
254	0xbe091086	-0.1338521
255	0x3e220669	0.15822758
