3_Hardware/2_Hardware/model/quantized_model.tflite (tflite, 126224 bytes, 12 tensors)

sequential/dense_1/MatMul f4 [7, 128]
00000000: d646 58be fb88 afbd ab01 53bd 7d33 023e
00000010: fe64 04bd 7a9f 6d3e 78fb 4d3d 479c 49bd
00000020: fdbc 393e 1eb4 3e3e 1e46 213c e550 cc3c
00000030: d2bf 2b3d 97a8 b2bb 29d7 e33d 7210 cc3d
00000040: 1ede d33d d126 88bc f70a f63d 9d85 d93d
00000050: 81f2 51be d7d3 16be 59e1 9abc 8d4f 93bd
00000060: cf79 b3bd f366 07be 61aa 323e 9ef8 cfbd
00000070: a4be 14be 250b 28bc fc93 733e 5675 b43d
00000080: e651 813d da1a c3bd e982 2a3e 3fb3 f2bd
00000090: ca17 4dbe ae03 b93c 0f1d ba3c 1ba2 eb3d
000000a0: 7164 2ebe fd4c 2e3d 5f20 cfbd 88d6 1e3e
000000b0: 9d87 3fbc 88f2 2b3d 35da 413e ed86 253d
000000c0: 413d 513e 131a 323c b201 e1bd f9f8 cebd
000000d0: f6af 06bd 2525 e5bb c7fd de3d ad74 46be
000000e0: eca8 203e ae80 b33d 354a 493b a710 863d
000000f0: 98c5 c33d 0f02 88be bf3e 8fbd 24ae e83d
00000100: da07 d7bd 8be3 59be c122 1c3e aab1 cdbd
00000110: ef2d 55be f307 323e 55d5 043d 3f6e 003e
00000120: ab0e 233c a313 d43d 2ac0 6ebe d72a fdbd
00000130: 75a8 fa3c 5a1f 143e dd2b 0cbe d9d2 d1bd
00000140: 40d5 b63d b37b 9d3d 6ebf 393d 18a5 afbd
00000150: 72dc 6a3e 04a5 2fbc 0888 de3d 5c26 4bbd
00000160: 9f88 44bd b817 443e 83e4 bdbd 8e22 f9bd
00000170: 98e2 bcbd ec96 38be a930 f2bc f999 03be
00000180: e513 47be 9ede 5fbd fdbe 743c c5cb 5e3e
00000190: 44d0 a93c a55b 473e 4a92 533d deed d4bd
000001a0: a28a aa3d b262 1abe 7e52 febd 8f8f 023e
000001b0: c93a 623e 2dce cf3b a81d c93c 5921 b63d
000001c0: ed72 3fbe 5863 2f3e 2f6a a0bd 7624 acbd
000001d0: 6716 21be d703 67be 1691 473e ce87 1f3e
000001e0: 9404 253d 1fe3 34be 790e 21be 6c06 c3bd
000001f0: 4092 2c3e 689a 463c ffcb 90bd a3a4 92bc
00000200: 0a0d eabd 9d40 76be 5e38 16bc 573a 49be
00000210: c74e 09be 85cb 4dbe 1edd 043e e03e c1bb
00000220: 4728 68be 4bbf c9bc cce9 2fbe 600d e5bd
00000230: bf8e 30be 3bac 87bd 5acd 1cbe 7004 c53d
00000240: a90e 573d 9a58 c53a f6e3 983d 7d4f e93d
00000250: 409d 323e 46cf 213e 869d cdbd c864 fc3d
00000260: cb0c 6dbe 85ba 1bbd 6df0 1bbd 52d6 ba3c
00000270: 04ed da3c c42c 6c3c 2de4 1d3e 8ecd 093e
00000280: 68d5 b63d 4fbd 2ebd 72cb 04be f255 c03c
00000290: 6a55 a83d 3a90 eb3d de7b 83bb 5fad 763d
000002a0: 4b40 78be 47dd abbc 3916 a3bd c300 85be
000002b0: 2b27 7a3c 5d23 5dbc e3a5 00be e57e ef3d
000002c0: 6ed9 dc3d b6d0 7e3d 2b01 60be 078d c63d
000002d0: 04ac bd3d be1d 573e e7d6 28bd 64d6 203c
000002e0: 6f3c c0bd f416 26be 9db7 d2bd 07df 4c3e
000002f0: 48c1 153d 3e13 a8be 5011 dbbd 5ca6 9ebc
00000300: 2d34 f23d 2ca5 cb3d 037f 99bd c3d7 af3d
00000310: 7dfb 233a 3113 6ebd 3817 48be 3bf5 75be
00000320: 1ee0 223d bfce 4fbe 5524 d4bd f5e8 c9bd
00000330: 62a0 aebc 4677 f7bd c979 f73d 1112 b2bc
00000340: a352 f0bd f3ac 4fbd a6fe 60be 7273 933d
00000350: 1fbe 0bbe 73d2 65bd 2f10 e6bc 89f1 37be
00000360: 7abd 31be be49 523e aeba 993b 9ffd 0c3e
00000370: c562 a03d 852f 713e 4949 2ebe c3e9 e0bd
00000380: d9f6 f3bd 3b0f 89be 0414 b03d b979 1f3d
00000390: 9686 863e 4846 d5bc d53e 56bd 03ae 3f3e
000003a0: 16a2 7cbe 9cc1 2dbe 7846 503d 2c29 8abd
000003b0: a411 61bd a939 fe3d c6de 4bbc ddb0 31be
000003c0: 5844 243e 9e31 2fbe 19b1 02bd 8d03 403d
000003d0: 9681 22be 1f8a 3abd f4cb 0abe 513a 5ebe
000003e0: c3c9 173e 89b7 bc3d 84aa 7bbe 0e86 8abe
000003f0: ec94 e93c 5aae 2c3e 8610 09be 6906 223e
-0.21120772 -0.08571049 -0.051515263 0.12714954 -0.032322876 0.23205367 0.050288647 -0.049221303
0.181385 0.18623397 0.009843377 0.024940917 0.04193098 -0.0054522264 0.11125023 0.09964074
0.103451 -0.016620072 0.1201381 0.10621188 -0.20502664 -0.14729248 -0.018906282 -0.071929075
-0.087634675 -0.13222866 0.17447807 -0.10154842 -0.14525849 -0.010256563 0.2378692 0.088114426
0.06314449 -0.09526606 0.16651501 -0.11850595 -0.20028606 0.022584762 0.022718934 0.115055285
-0.17030503 0.04255389 -0.10113596 0.15511525 -0.011690048 0.041979343 0.18930896 0.04041188
0.20433523 0.010870474 -0.109866515 -0.101060815 -0.032882653 -0.0069929534 0.10888248 -0.19380446
0.15689439 0.08764778 0.0030714397 0.06546145 0.095591724 -0.2656407 -0.0699439 0.1136134
-0.104995444 -0.21278207 0.15247633 -0.10043652 -0.20818304 0.17385845 0.03243001 0.12542056
0.009952228 0.10355308 -0.23315492 -0.12361687 0.030597905 0.14465085 -0.13688608 -0.10245294
0.08927393 0.076896094 0.045348577 -0.08576411 0.22935656 -0.010720495 0.1086579 -0.04959713
-0.047981855 0.19149673 -0.09272101 -0.12164794 -0.09222907 -0.18026322 -0.029564219 -0.12851705
-0.19441183 -0.054655664 0.014938113 0.2175742 0.020729192 0.19468553 0.051653184 -0.10396932
0.08327223 -0.15076712 -0.12418078 0.12750076 0.22092737 0.0063417167 0.024550274 0.08893079
-0.18696184 0.1712774 -0.07832753 -0.08405392 -0.15731202 -0.22560059 0.1948894 0.15579149
0.04028757 -0.17664765 -0.15728177 -0.09522709 0.16852665 0.012121774 -0.07070159 -0.01790077
-0.11428268 -0.24048086 -0.009168712 -0.19651161 -0.13408957 -0.20097168 0.12974975 -0.005897388
-0.22671615 -0.024627348 -0.1717903 -0.11184192 -0.17241953 -0.06624647 -0.1531271 0.09619987
0.052504215 0.0015056313 0.07465355 0.11392114 0.17442799 0.15801725 -0.10039811 0.1232391
-0.23149411 -0.038019676 -0.038071085 0.022807274 0.026724346 0.01441497 0.15419073 0.13457319
0.08927423 -0.042661007 -0.12968233 0.023478482 0.082194164 0.115021184 -0.004012569 0.060223933
-0.24243276 -0.020979537 -0.07963223 -0.25977144 0.015268127 -0.013497201 -0.12563281 0.11694125
0.10783659 0.06221076 -0.21875446 0.096948676 0.09261325 0.2100744 -0.04122057 0.00981674
-0.09386527 -0.16219693 -0.10288928 0.20006953 0.03656128 -0.3282718 -0.106966615 -0.019366436
0.11826358 0.099436134 -0.07494929 0.08586075 0.0006255431 -0.05812377 -0.19540107 -0.24019329
0.039764516 -0.20293711 -0.10358492 -0.09858886 -0.02131671 -0.120832965 0.120837756 -0.02173713
-0.11734512 -0.050702047 -0.2197214 0.07199754 -0.13646744 -0.056108903 -0.028083889 -0.17963232
-0.17357436 0.20535943 0.0046914434 0.13768624 0.07831339 0.23553284 -0.17020144 -0.109820865
-0.11912317 -0.26769432 0.08597568 0.038934443 0.26274556 -0.02603449 -0.052306015 0.18718724
-0.24671206 -0.16968387 0.050848454 -0.06746134 -0.054948464 0.124133416 -0.01244325 -0.17352624
0.16041696 -0.17108771 -0.031907175 0.046878386 -0.15869746 -0.04554188 -0.13554364 -0.21701933
0.1482306 0.09214694 -0.24576765 -0.270554 0.028513394 0.16863385 -0.1338521 0.15822758

sequential/dense_1/BiasAdd/ReadVariableOp f4 [7]
00000000: e530 0c3c 499a 763d 587e a0bd 88a2 fd3c
00000010: f9ee af3d a855 2dbe 48e9 95bc
0.008556579 0.06020573 -0.07836598 0.03096129 0.08590502 -0.16927207 -0.018299714

sequential/dense/BiasAdd/ReadVariableOp f4 [128]
00000000: 3d20 15bc 850d 11bd e227 87bc 7b30 36bc
00000010: db77 0fbc 77ee 88ba 3d05 bdbc 19d9 26bd
00000020: 187c 09bc d634 b53c ca6f 9fbc 106a 16bd
00000030: ead1 793c 46f9 7abb f3e8 d5bb a5d1 bcbc
00000040: 1187 123d 9e1d a9bc a84a bcba f1fd 0dbd
00000050: 74d9 3aba cd6e 6cbc c4ab c5bc a124 3fbc
00000060: 2aa1 adbc 2205 cabc e2c2 1d3d dcb7 bc3c
00000070: f512 65bc dc48 a5bc 6af0 e83c 71a3 13bc
00000080: df2d 81ba 8105 993c bc3c cb3c 3402 9fbc
00000090: c732 1c3c b570 d7bc 61c1 87ba fc53 3cbc
000000a0: 953b bc3b 076e a2ba 0b4a 9cbb dfbe ae3c
000000b0: cabf 09bd 2264 e5bc 9002 9fbc a496 09bd
000000c0: 1852 923c 02a0 c8bc 5a79 08bc 7548 1dbc
000000d0: 4dde b83c baf0 61bc f1b5 44bc 9d7e e5bc
000000e0: 9b06 09bd 05f6 1a3c 5443 c1bc 2f9a dfbc
000000f0: 3e25 e33c 1c61 aaba 497d 98bc 0ff4 ba3c
00000100: dda5 edbc f4f3 39bc 1e88 d9bc a430 3abd
00000110: 8801 39bc 29bb babc 2dd5 15bd ff6f d0bb
00000120: 170f 96bc 6639 9ebb 6b9e e13c 3f96 07bc
00000130: cb60 783b 641d 2c3d 9ace 20bc 14b3 d0bc
00000140: f424 bdbc 7bb7 c4bc d87e dfbc e058 f53b
00000150: 9519 cebb c777 1d3c 74b4 46bb 4ce5 fbbb
00000160: 39c5 92bc 45ec 6ebc b6e1 eabc 60bc 203d
00000170: 791e abba 409d 49bc c840 053c db2f 39bd
00000180: aa0d 78ba 3638 cf3c 0f9b 26bc 58a3 c03b
00000190: b03a 373a 1323 a6bc 83fb 91bc b536 21bd
000001a0: 4267 50bc 2d19 18bc 512a 3dbd c6bb c33c
000001b0: 353d 1d3b 8e26 bcbc 4bb6 d9bb fa37 26bc
000001c0: d061 98bc e501 84ba 378f c73c 1fb7 56bc
000001d0: 2d7d 87bc 63bf efba b8f5 19bc bce1 d03c
000001e0: 221f 81bc bd2b 93bc 105c 98bc b65e 98bc
000001f0: c6cd 91bc 3428 04bd b87e 4c3d f4bd 83b9
-0.0091019245 -0.035413284 -0.01649851 -0.011119957 -0.008756603 -0.0010447045 -0.023073787 -0.040734384
-0.008391403 0.02211992 -0.019462485 -0.036722243 0.015247801 -0.0038295551 -0.006528014 -0.023049185
0.03577334 -0.020644005 -0.0014365511 -0.034666006 -0.000712774 -0.014430714 -0.024129756 -0.011666448
-0.021195013 -0.02466065 0.038515933 0.02303689 -0.0139815705 -0.020176344 0.02843495 -0.009011135
-0.000985559 0.018679382 0.024809234 -0.01941023 0.009533591 -0.02629886 -0.0010357314 -0.011494633
0.0057444074 -0.001239241 -0.004769569 0.021331249 -0.03363017 -0.028001849 -0.019410402 -0.033590928
0.017861411 -0.02449036 -0.008329714 -0.009599795 0.022566939 -0.013790304 -0.012006269 -0.028014475
-0.033453565 0.00945807 -0.023591675 -0.0272952 0.02772772 -0.0012998912 -0.018614428 0.022821454
-0.029009754 -0.011349667 -0.026554164 -0.045456544 -0.011291869 -0.022794323 -0.036580253 -0.006361007
-0.018317742 -0.00482862 0.02754136 -0.008275568 0.003789949 0.042020217 -0.009814883 -0.025476016
-0.02308891 -0.024013272 -0.027282164 0.0074874014 -0.0062896707 0.009611077 -0.003031996 -0.0076872464
-0.017916309 -0.014582698 -0.02867208 0.03924215 -0.0013055346 -0.012305558 0.008133121 -0.045211654
-0.00094624853 0.025295358 -0.010168805 0.005878847 0.0006989641 -0.020280397 -0.017820125 -0.039358813
-0.012719931 -0.009283346 -0.046182934 0.023893248 0.002399278 -0.022967603 -0.0066440455 -0.010145182
-0.018601328 -0.0010071365 0.024360282 -0.013105183 -0.01653918 -0.0018291291 -0.009396963 0.025498264
-0.015761916 -0.017965192 -0.018598586 -0.01859985 -0.017798316 -0.032264903 0.049925536 -0.00025127793

sequential/conv2d/BiasAdd/ReadVariableOp f4 [16]
00000000: 1043 5b3e a545 903d 06a3 1c3e c629 103d
00000010: 6c8b b2bd 0bd1 b23e b3b6 c13d 283d 363d
00000020: 2146 35bd ffc4 063d 626e 8b3d 2a89 973e
00000030: dcc7 6dbe fcdf 823c 456b a6bc 6998 053d
0.21412301 0.07044534 0.15296564 0.03519609 -0.08717999 0.34925112 0.09458675 0.044491917
-0.044256333 0.032902714 0.06808163 0.29596835 -0.23220772 0.015975945 -0.020314822 0.032616053

sequential/conv2d_1/BiasAdd/ReadVariableOp f4 [32]
00000000: 4e75 1e3e b563 0a3d bd4d d23d bea3 0d3e
00000010: fca3 1dbd eafe 0dbe 48d5 2f3e a6d3 d73c
00000020: c34d 99bd 7fbb b0bc 0591 1fbd becd 4abd
00000030: 758b f83d d37c f23c 76ae f33d 6c7b ad3c
00000040: 350b 6fbd 2512 91bd a3a5 933d 4ded 94bb
00000050: 2729 4ebd 20a9 693a 05c1 0c3e 353c f5bd
00000060: 80a9 90bd 5534 c73c 16ab 8abd 98b3 343d
00000070: 880e b93c 2f62 453d 5ed9 babc bfd0 99bd
0.15474436 0.033786494 0.10268734 0.13831994 -0.038486466 -0.13866773 0.17171204 0.026346039
-0.07485535 -0.02157378 -0.03895666 -0.049512617 0.12135974 0.029600536 0.1189851 0.021177016
-0.058360297 -0.07083539 0.07209327 -0.00454489 -0.050332215 0.0008913446 0.13745506 -0.11974374
-0.070635796 0.024316946 -0.06770913 0.044116586 0.022589937 0.04818934 -0.022808727 -0.07510518

sequential/conv2d_2/BiasAdd/ReadVariableOp f4 [64]
00000000: 8778 25bd 9af7 773b 71d5 2abd e775 273c
00000010: 8f15 213d 52b7 4b3c 35e6 033d 28cf 1dbd
00000020: 59ba 083d 81fa ef3d 8f38 cfbc 482f 2c3d
00000030: 100e 153d 93ae 82bd f0a9 e2bc ebc3 093d
00000040: 3d76 913d d198 2fbb 976c 713d aa26 aabc
00000050: 10c2 3abd b7a8 013c 4da1 0ebd afc4 5fbd
00000060: 621c 28bd 16d6 abbb 0149 5cbc db30 1bbd
00000070: 4d87 cbbc ab41 84bc 913d 613b fb0e 3abd
00000080: 89d6 51bb 4bd5 0fbd 9e96 f53b 2564 06bd
00000090: dd47 08bb 4f3e 2ebd 525d 25bd 7284 c7bc
000000a0: a8d5 853c 7760 013b 4d58 96bd 535c c3bc
000000b0: 6f93 1abb cc44 b9bc 5fac 3cbc c233 303d
000000c0: 5caf d5bc a440 11bc 8a93 443d 6de4 5d3c
000000d0: 977c 063e 2368 0b3b 19ff 8c3d b005 0bbd
000000e0: 5a1e c8bc 7d68 63bc d0ab 9dba 919d eebc
000000f0: 66fb 363d 50ad c0bc a1af 8bbc 4d73 b6bb
-0.040398147 0.003783679 -0.04170746 0.010220981 0.0393272 0.012433844 0.032201964 -0.038527638
0.03338084 0.11717702 -0.025295524 0.04203728 0.036390364 -0.06380954 -0.027668923 0.033634108
0.0710263 -0.0026793967 0.05894145 -0.02077039 -0.04559523 0.00791376 -0.034821797 -0.05463093
-0.041042693 -0.005244027 -0.01344514 -0.03788839 -0.02484479 -0.016144594 0.0034368972 -0.045424443
-0.0032018742 -0.03511552 0.0074947616 -0.03281035 -0.0020794787 -0.04253989 -0.0403722 -0.024355147
0.01633723 0.0019741335 -0.07341061 -0.023847735 -0.0023586412 -0.022615813 -0.011515706 0.04301811
-0.026084594 -0.008865509 0.047992267 0.0135432305 0.13133465 0.0021271787 0.068845935 -0.03394097
-0.024428535 -0.013879892 -0.0012029354 -0.029127868 0.044673346 -0.023520142 -0.01705152 -0.005567944

sequential/conv2d_3/BiasAdd/ReadVariableOp f4 [128]
00000000: 1241 8ebc 0fff 74bc 42a8 cc3b c58b 07bc
00000010: 48a1 0fbc 0414 23bd c3da 77bc f72b 5dbc
00000020: a2c0 d0bb e07e 22bd 6c21 a7bc 8df1 79bd
00000030: 8d01 18bc 5658 00bd 0500 11bd e66d c0bc
00000040: cc4f 34bc 650b 12bd 712c 58bc 3623 30bd
00000050: 3725 323c c5ee 1a3d 0442 a13c 34c8 32bd
00000060: a2c5 41bc 0266 2fbd ac22 31bd 3e7f 5c3d
00000070: 4693 cb38 2097 48bd 53aa afbb b4da 51bd
00000080: bb33 1cbc baef 55bc b158 ebbc c5a7 e93c
00000090: c710 dcbc 4bb2 04bd 6bc6 3dbc 8d16 87bc
000000a0: 82be 403c 551a 08bd 3766 a0bc 3fcb f3bb
000000b0: b788 e8bc 0d39 6f3d 9157 70bc 90ce c4bb
000000c0: b3fc c7bc 8d3d b4ba 97b8 68bc c8e6 1bbd
000000d0: 7f97 67bc 1d0b 5fbc aef8 adbc 4f43 c33c
000000e0: ebbf dcbc d8f4 aabc 5917 c8bc 12c9 0ebd
000000f0: adc4 9e3b 56dc 03bd 1e6a 27bc 8991 b5bc
00000100: e56d 12bd 68f4 9dbc a240 473b 1841 01bd
00000110: 80d0 95bc efb7 46bc 95de 6dbd 3271 b5bc
00000120: a74f 48bc acf0 ec3b dc30 0fbd 02ec c2bb
00000130: 1239 fdbc 8937 7ebd f1fb 233c 7445 46bc
00000140: c135 a73a e028 d3bc 4468 3dbd b56e febb
00000150: 8bbf ceba fbdf 223d 6a85 153c 6691 0dbc
00000160: 7ac6 1cbd 9352 45bd 4223 a7bc fb0d 08bd
00000170: 6a94 3dbc abdc f4bc 19f6 05bd aadc 0fbd
00000180: a866 17bd 5423 38bc 236a ecbc c0d4 cd3b
00000190: 609c 78bd 20fe 69bc dc4d 23bc 18ae c6bc
000001a0: 98cf 8f3d bcf6 f53a bca6 7bbc 928f 2f3c
000001b0: 7628 36bc 5d09 bfbc 2f0d 8dbc 7741 fdbc
000001c0: 8d2b bc3b 67be f7bc 8d76 5fbc 47e4 adbc
000001d0: 9712 72bd bc25 17bd 2d2a c4bc 4090 3bbd
000001e0: e80c 34bd 0160 2cbd 2444 9b3c 974a 92bd
000001f0: 8fd4 3bbc f73a 8cbd 7ff4 96bd 1f21 ebbc
-0.017365012 -0.014953389 0.006245644 -0.00827307 -0.00876648 -0.03981401 -0.01512784 -0.013499252
-0.00637062 -0.03967178 -0.020401679 -0.061021376 -0.0092777135 -0.031334244 -0.03540041 -0.023489904
-0.011005353 -0.035655398 -0.013194189 -0.04300233 0.0108731305 0.037825365 0.019684799 -0.04364796
-0.0118269045 -0.04282189 -0.043245956 0.053832285 9.707226e-05 -0.04897225 -0.0053608804 -0.051233962
-0.009533818 -0.013057644 -0.028728815 0.028522382 -0.026863469 -0.032396596 -0.011582951 -0.016490245
0.011764171 -0.033228237 -0.01957999 -0.0074400003 -0.028385503 0.058404017 -0.014669315 -0.0060060695
-0.024412489 -0.0013751254 -0.014204166 -0.038061887 -0.014135241 -0.013613489 -0.021236744 0.023835806
-0.026946982 -0.020868704 -0.024425196 -0.034859724 0.004845223 -0.03219255 -0.010218171 -0.022164123
-0.035749335 -0.019281581 0.0030403514 -0.03155622 -0.018287897 -0.012128814 -0.0580736 -0.022148702
-0.012226022 0.0072308388 -0.034958705 -0.0059485445 -0.030911002 -0.06206468 0.010008798 -0.01210152
0.0012757109 -0.025776327 -0.046242014 -0.007764662 -0.0015773637 0.039764386 0.009126047 -0.008640623
-0.03827522 -0.048174452 -0.020402554 -0.033216458 -0.011571029 -0.029890379 -0.0327054 -0.03512255
-0.036963135 -0.011238892 -0.028859204 0.0062814653 -0.060696006 -0.0142817795 -0.009967294 -0.024252936
0.07022017 0.0018765549 -0.015359577 0.010715382 -0.011118045 -0.023319894 -0.0172182 -0.030915005
0.0057424963 -0.030242158 -0.013639105 -0.021227015 -0.05909976 -0.03690122 -0.023945892 -0.045791864
-0.04395762 -0.042083744 0.01895339 -0.07143133 -0.011464252 -0.06847184 -0.07370853 -0.028702317

sequential/conv2d/Conv2D f4 [16, 3, 3, 1]
00000000: 165e f8bd c126 92bd 7fbf c6bd 1dd9 b1bd
00000010: 85e6 2d3c 0ccf 463e 6ce3 033e e2c0 c83d
00000020: 8367 3e3e 76dd 183e fa23 4e3e 6a2f 27be
00000030: 4e38 7a3e fd00 0f3e 944c 9a3d a165 733d
00000040: 36bf 15ba c603 f7bd 8b07 263c bf47 ff3c
00000050: ce0c 3c3e 4ac1 a3bd 091e a0bd cdda a33e
00000060: 1b85 20bb c995 82bd 696b 8a3e aed0 2e3d
00000070: 56e1 b83e b491 d03d 9ac0 b93e 34b5 853e
00000080: 7a4e 5bbd 9378 9a3e d154 9b3d c161 16bd
00000090: 0e4e 27be 1f58 eabd 0775 86bd ba87 8bbd
000000a0: 9ae6 1ebd 8193 01be c0de 8e3c e910 2e3e
000000b0: 78a8 6e3e 9819 443d 5001 c43d f8c7 7d3e
000000c0: 25f1 ecbd 8bc9 e2bd d0d9 fc3d cfab 5f3e
000000d0: 6e3a 22be 1872 a5bd 41e9 153e 9402 75bd
000000e0: 728c b03e 6dd7 ae3d cbc0 e03d 03c7 7d3e
000000f0: daca c63d ee62 8f3d 5bc2 0d3e c9e0 60bd
00000100: 41ef bf3e 9530 73bd baf2 2c3d e48b d13e
00000110: 41b9 88bd ddee a83e e0cb 223c afcf bb3d
00000120: 5b7a 103e 388b da3d aedc 44bd dfb2 d73b
00000130: 56c5 ccbd 4219 303e cbba 8fbd 3b00 1a3d
00000140: 8546 23be 4f85 433e 4709 3f3d ac31 8abd
00000150: 024e b23d a2e5 dd3d cb3e 1a3e e118 7cbe
00000160: 8be8 37bc 0d17 46be a1f0 57bd 2fd7 ec3d
00000170: 040c 643e 218b 2bbe 9180 e83d 55a6 043e
00000180: 0314 8dbd 2b1f fa3d 07d4 5e3e ad80 6cbe
00000190: 4491 b8bd a682 3f3e 5190 e63d 0b03 29be
000001a0: 6016 ae3b 4983 4f3e 6519 5c3e 0ae3 e9bd
000001b0: 10ba 133d 0790 26be 5853 21be 2981 3abe
000001c0: 3989 e8bc d59f 243e 0974 a0bd d4f5 b3bd
000001d0: 86c6 fdbd cdfa 43bd 411d 8c3e cbaf f33d
000001e0: 6762 5bbd 71cd 763e 81e8 213e a376 43be
000001f0: 0b04 5d3e 3794 223e daca 96bd 1ca6 04be
00000200: 3509 13be b629 593e fa4c 2c3d b9cf 1fbd
00000210: b59c 4d3e 4342 2c3d 5eff 1bbd f623 6c3d
00000220: 153e e53d 5383 963e 29dc 4c3d 739b ad3e
00000230: 7375 b03d 1287 34be 2bec dd3d cbbc 8c3e
-0.121273205 -0.07136298 -0.09704494 -0.08683989 0.010614042 0.1941492 0.12879723 0.098024145
0.18594174 0.1492823 0.20130911 -0.16326681 0.24435541 0.13965221 0.07534137 0.059423093
-0.00057123916 -0.120612666 0.010133634 0.03116214 0.1836426 -0.07995851 -0.07818229 0.3200287
-0.00244934 -0.063762255 0.27035072 0.04267948 0.36109418 0.10184041 0.36279756 0.2611481
-0.053541638 0.30170116 0.07584537 -0.03671432 -0.16338369 -0.11442589 -0.0656529 -0.06812997
-0.038794138 -0.12653925 0.0174402 0.16998638 0.23306453 0.04787597 0.09570563 0.24783313
-0.11569432 -0.110735975 0.12346232 0.21842884 -0.15842602 -0.08078402 0.1463976 -0.05981691
0.3448215 0.08537183 0.10974272 0.24782948 0.097066596 0.07001291 0.13843672 -0.05490187
0.37487224 -0.059372503 0.04222367 0.4092704 -0.066759594 0.32994738 0.009936303 0.09170472
0.14109175 0.10671085 -0.04806202 0.0065826024 -0.09998576 0.17197135 -0.0701805 0.037597876
-0.1594487 0.19093822 0.046639707 -0.067477554 0.08706285 0.108348146 0.15063016 -0.24618866
-0.011224876 -0.1934473 -0.052719716 0.115644805 0.22270209 -0.16752292 0.11352647 0.12954076
-0.068885826 0.12212976 0.2176057 -0.23095961 -0.09012082 0.18702182 0.11257995 -0.16505067
0.005312726 0.20264925 0.21494062 -0.114202574 0.036066115 -0.1626588 -0.1575445 -0.18213333
-0.028385745 0.16076596 -0.07834632 -0.08787122 -0.12391381 -0.047846604 0.2736607 0.11898764
-0.05356064 0.24101807 0.1581135 -0.19088225 0.21583574 0.15876852 -0.073629096 -0.1295399
-0.14358981 0.21207318 0.042065598 -0.03901646 0.2007931 0.04205538 -0.038085334 0.057651483
0.11193482 0.29397067 0.05001465 0.3390766 0.08616152 -0.1762965 0.10836061 0.27487788

sequential/conv2d_1/Conv2D i1 [32, 3, 3, 16]
00000000: fff3 d6fd bdf8 4fcd 0b3d 3018 e234 1e6b
00000010: e63f 3e4c d451 ef1b ea22 d105 c940 b0a8
00000020: 1ae2 b3f5 b3f5 e044 da2d f153 ae1a 3e36
00000030: f5bf 661c 115b 0ef4 1d7f 1dfe f9df ea34
00000040: d7d7 0174 d247 0f0d 072b 9ff0 14c2 06dc
00000050: 065c 0ceb b856 c8de 7a60 22d6 cbe8 bfdf
00000060: 1ba7 0625 d347 294d d4c0 3871 580b ac34
00000070: 1325 fa52 2c39 1018 e7cd e6c9 36fd c129
00000080: 2c0b 06b4 f7fa 153c e80c e43e 251e c0ce
00000090: 1f0e f43d 0713 1001 1d30 dc15 a8f7 d8c4
000000a0: 3211 3ef6 e1e7 0cfe 4a44 2702 e408 f5e2
000000b0: 2b0f fc0c 0bf7 cd48 e6f0 5232 cd6b 0c4e
000000c0: d414 5833 1162 be7f b4b9 d534 c510 bc12
000000d0: 525f e3e0 1d5b e067 023c 262c e738 4b0f
000000e0: 0dda 691a 4557 3f67 ddde 4a54 120c 1769
000000f0: f312 10fd b1c1 f516 e9c4 a6d0 03b1 e497
-1 -13 -42 -3 -67 -8 79 -51
11 61 48 24 -30 52 30 107
-26 63 62 76 -44 81 -17 27
-22 34 -47 5 -55 64 -80 -88
26 -30 -77 -11 -77 -11 -32 68
-38 45 -15 83 -82 26 62 54
-11 -65 102 28 17 91 14 -12
29 127 29 -2 -7 -33 -22 52
-41 -41 1 116 -46 71 15 13
7 43 -97 -16 20 -62 6 -36
6 92 12 -21 -72 86 -56 -34
122 96 34 -42 -53 -24 -65 -33
27 -89 6 37 -45 71 41 77
-44 -64 56 113 88 11 -84 52
19 37 -6 82 44 57 16 24
-25 -51 -26 -55 54 -3 -63 41
44 11 6 -76 -9 -6 21 60
-24 12 -28 62 37 30 -64 -50
31 14 -12 61 7 19 16 1
29 48 -36 21 -88 -9 -40 -60
50 17 62 -10 -31 -25 12 -2
74 68 39 2 -28 8 -11 -30
43 15 -4 12 11 -9 -51 72
-26 -16 82 50 -51 107 12 78
-44 20 88 51 17 98 -66 127
-76 -71 -43 52 -59 16 -68 18
82 95 -29 -32 29 91 -32 103
2 60 38 44 -25 56 75 15
13 -38 105 26 69 87 63 103
-35 -34 74 84 18 12 23 105
-13 18 16 -3 -79 -63 -11 22
-23 -60 -90 -48 3 -79 -28 -105

sequential/conv2d_2/Conv2D i1 [64, 3, 3, 32]
00000000: c0b8 16f2 f9c4 ffc8 f8e1 06f4 ef2b f2f3
00000010: e1e8 0cd9 15de e4f8 11f7 05c2 1fee 0ccb
00000020: edff f2bf 22c0 100f b8e6 dc03 1210 e60f
00000030: fa00 2919 fabe f2db bbcd e520 1600 26d4
00000040: 3644 13d4 02b3 2e11 e206 e713 e504 311c
00000050: b9d5 38ed d5e2 17ea e481 bb35 d50d 4eda
00000060: f0db 1000 02ab ebe8 d6e9 02e4 021d 192b
00000070: e9ee 1bf4 f9ec f3ea f5bc 15e2 fb1c f9ea
00000080: 240e 120d 11c7 0f00 b014 ebf8 d11b 0139
00000090: f8e4 fffc 00c8 e6f4 eddb dd2f f6f4 1797
000000a0: 3afa fad2 e5b3 1227 d30f f8fa 21e1 0a08
000000b0: 99d7 07f2 cba9 0bb8 e8be eb34 d610 0cb0
000000c0: 0007 27f0 f6ae 0ee1 acf7 0010 e022 e811
000000d0: dce6 f41e 17d1 060e e6b3 e3fe f206 1cac
000000e0: 0aef dfd0 33ca 1013 b8dc de0c e20b f901
000000f0: dd19 2bf5 0db7 1beb 0210 e3e6 10f2 f9d1
-64 -72 22 -14 -7 -60 -1 -56
-8 -31 6 -12 -17 43 -14 -13
-31 -24 12 -39 21 -34 -28 -8
17 -9 5 -62 31 -18 12 -53
-19 -1 -14 -65 34 -64 16 15
-72 -26 -36 3 18 16 -26 15
-6 0 41 25 -6 -66 -14 -37
-69 -51 -27 32 22 0 38 -44
54 68 19 -44 2 -77 46 17
-30 6 -25 19 -27 4 49 28
-71 -43 56 -19 -43 -30 23 -22
-28 -127 -69 53 -43 13 78 -38
-16 -37 16 0 2 -85 -21 -24
-42 -23 2 -28 2 29 25 43
-23 -18 27 -12 -7 -20 -13 -22
-11 -68 21 -30 -5 28 -7 -22
36 14 18 13 17 -57 15 0
-80 20 -21 -8 -47 27 1 57
-8 -28 -1 -4 0 -56 -26 -12
-19 -37 -35 47 -10 -12 23 -105
58 -6 -6 -46 -27 -77 18 39
-45 15 -8 -6 33 -31 10 8
-103 -41 7 -14 -53 -87 11 -72
-24 -66 -21 52 -42 16 12 -80
0 7 39 -16 -10 -82 14 -31
-84 -9 0 16 -32 34 -24 17
-36 -26 -12 30 23 -47 6 14
-26 -77 -29 -2 -14 6 28 -84
10 -17 -33 -48 51 -54 16 19
-72 -36 -34 12 -30 11 -7 1
-35 25 43 -11 13 -73 27 -21
2 16 -29 -26 16 -14 -7 -47

sequential/conv2d_3/Conv2D i1 [128, 3, 3, 64]
00000000: 0fb7 2d0f 25e0 24fa 26d5 c22b 18d7 28b1
00000010: f035 0dff 07c2 f1b5 f901 f039 1f31 e8c4
00000020: 06fd 0bd6 fd16 a0fc ede8 03dc 1efb df2b
00000030: d8de 1507 2c02 cec3 0d28 f014 16cb b8d4
00000040: 3009 c5bd f7dd 11e5 c5c1 dacb e7e4 27bd
00000050: fbc8 c2d7 aef2 c9ef d921 9bb7 13b6 ba07
00000060: b4a6 4c0a bfae 11f2 3ae8 fad8 11db 1b40
00000070: fd0d f8ca a126 f646 1732 dfd8 cdcb 000f
00000080: 812c bef7 1ccb f2d7 1eee c0ef 55f8 0b0b
00000090: 2df1 1fdd 04ed 9c06 df23 c418 d920 c4c1
000000a0: dbe6 f9c4 c9fc e10d f9d1 02d7 d50a ea16
000000b0: af44 0414 8934 29e5 fafb 1730 1c30 eee9
000000c0: 14cf 03fb f506 fad7 10df e831 f4c2 c9cc
000000d0: 0f39 be36 abe0 01b7 bd12 e642 3d07 ef02
000000e0: 02e4 b627 0a87 fb26 bed3 3018 a9d7 d1cd
000000f0: b437 24ce 1d98 14a2 f2c1 26d4 9ff1 d1e0
15 -73 45 15 37 -32 36 -6
38 -43 -62 43 24 -41 40 -79
-16 53 13 -1 7 -62 -15 -75
-7 1 -16 57 31 49 -24 -60
6 -3 11 -42 -3 22 -96 -4
-19 -24 3 -36 30 -5 -33 43
-40 -34 21 7 44 2 -50 -61
13 40 -16 20 22 -53 -72 -44
48 9 -59 -67 -9 -35 17 -27
-59 -63 -38 -53 -25 -28 39 -67
-5 -56 -62 -41 -82 -14 -55 -17
-39 33 -101 -73 19 -74 -70 7
-76 -90 76 10 -65 -82 17 -14
58 -24 -6 -40 17 -37 27 64
-3 13 -8 -54 -95 38 -10 70
23 50 -33 -40 -51 -53 0 15
-127 44 -66 -9 28 -53 -14 -41
30 -18 -64 -17 85 -8 11 11
45 -15 31 -35 4 -19 -100 6
-33 35 -60 24 -39 32 -60 -63
-37 -26 -7 -60 -55 -4 -31 13
-7 -47 2 -41 -43 10 -22 22
-81 68 4 20 -119 52 41 -27
-6 -5 23 48 28 48 -18 -23
20 -49 3 -5 -11 6 -6 -41
16 -33 -24 49 -12 -62 -55 -52
15 57 -66 54 -85 -32 1 -73
-67 18 -26 66 61 7 -17 2
2 -28 -74 39 10 -121 -5 38
-66 -45 48 24 -87 -41 -47 -51
-76 55 36 -50 29 -104 20 -94
-14 -63 38 -44 -97 -15 -47 -32

sequential/dense/MatMul i1 [128, 128] scale=0.0029685334 zero_point=0
00000000: fb03 041d 1f30 2bd7 23ed fe1c 15dd 17eb
00000010: e013 dfbb 0a0c 46d6 def3 06f2 e60a c933
00000020: b724 ff15 d1f4 0840 d3fc 3bee 120f e6d0
00000030: 3603 e71f 1efc 1227 e3f0 06b8 e2e6 f4d1
00000040: f40b 34e3 1f2c d11f 1fea fe27 13f1 3133
00000050: ffd8 fd45 fa1f f62f a31c 25d3 fcfa 120e
00000060: 2b10 fbf8 44c7 0f2f 4521 083e 111b e6ec
00000070: e336 dffc f717 e3ec 0dd1 18e2 32bc 0f18
00000080: f2e9 e61e fb19 e3cf 2edb e003 2c14 ca08
00000090: f9c9 2bf7 c5bb cf04 2519 260e 3d28 f1de
000000a0: 1518 0210 de28 1d20 08d9 eeff ee20 180f
000000b0: e9ed 060b d115 02dc 08ef 20f1 01cd 040e
000000c0: ed03 ed04 d5d6 f5ff e1fc ece8 0af8 ccff
000000d0: 0925 f6f4 f52d 4dfc 03cd f800 1411 1302
000000e0: de07 d30a d026 191b 0240 1c15 d130 c3fb
000000f0: de10 cf23 3d42 11ea 06fb f3f7 11bf f9fc
-0.014842667 0.008905601 0.011874134 0.08608747 0.092024535 0.14248961 0.12764694 -0.12170987
0.10389867 -0.056402136 -0.005937067 0.08311894 0.0623392 -0.10389867 0.06827627 -0.0623392
-0.09499307 0.056402136 -0.097961605 -0.20482881 0.029685333 0.035622403 0.20779733 -0.1246784
-0.10093014 -0.038590934 0.017811202 -0.04155947 -0.07718187 0.029685333 -0.16326934 0.1513952
-0.21670294 0.1068672 -0.0029685334 0.0623392 -0.13952108 -0.035622403 0.023748267 0.18998614
-0.13358401 -0.011874134 0.17514347 -0.0534336 0.0534336 0.044528 -0.07718187 -0.14248961
0.1603008 0.008905601 -0.07421333 0.092024535 0.089056 -0.011874134 0.0534336 0.115772806
-0.08608747 -0.047496535 0.017811202 -0.2137344 -0.089056 -0.07718187 -0.035622403 -0.13952108
-0.035622403 0.03265387 0.15436374 -0.08608747 0.092024535 0.13061547 -0.13952108 0.092024535
0.092024535 -0.06530774 -0.005937067 0.115772806 0.056402136 -0.044528 0.14545813 0.1513952
-0.0029685334 -0.11874133 -0.008905601 0.20482881 -0.017811202 0.092024535 -0.029685333 0.13952108
-0.2760736 0.08311894 0.10983574 -0.13358401 -0.011874134 -0.017811202 0.0534336 0.04155947
0.12764694 0.047496535 -0.014842667 -0.023748267 0.20186028 -0.16920641 0.044528 0.13952108
0.20482881 0.097961605 0.023748267 0.18404907 0.05046507 0.0801504 -0.07718187 -0.059370667
-0.08608747 0.1603008 -0.097961605 -0.011874134 -0.0267168 0.06827627 -0.08608747 -0.059370667
0.038590934 -0.13952108 0.071244806 -0.089056 0.14842667 -0.20186028 0.044528 0.071244806
-0.04155947 -0.06827627 -0.07718187 0.089056 -0.014842667 0.07421333 -0.08608747 -0.14545813
0.13655254 -0.10983574 -0.09499307 0.008905601 0.13061547 0.059370667 -0.1603008 0.023748267
-0.020779734 -0.16326934 0.12764694 -0.0267168 -0.17514347 -0.20482881 -0.14545813 0.011874134
0.10983574 0.07421333 0.11280427 0.04155947 0.18108054 0.11874133 -0.044528 -0.10093014
0.0623392 0.071244806 0.005937067 0.047496535 -0.10093014 0.11874133 0.08608747 0.09499307
0.023748267 -0.115772806 -0.0534336 -0.0029685334 -0.0534336 0.09499307 0.071244806 0.044528
-0.06827627 -0.056402136 0.017811202 0.03265387 -0.13952108 0.0623392 0.005937067 -0.1068672
0.023748267 -0.05046507 0.09499307 -0.044528 0.0029685334 -0.1513952 0.011874134 0.04155947
-0.056402136 0.008905601 -0.056402136 0.011874134 -0.12764694 -0.1246784 -0.03265387 -0.0029685334
-0.092024535 -0.011874134 -0.059370667 -0.071244806 0.029685333 -0.023748267 -0.15436374 -0.0029685334
0.0267168 0.10983574 -0.029685333 -0.035622403 -0.03265387 0.13358401 0.22857708 -0.011874134
0.008905601 -0.1513952 -0.023748267 0.0 0.059370667 0.05046507 0.056402136 0.005937067
-0.10093014 0.020779734 -0.13358401 0.029685333 -0.14248961 0.11280427 0.07421333 0.0801504
0.005937067 0.18998614 0.08311894 0.0623392 -0.13952108 0.14248961 -0.18108054 -0.014842667
-0.10093014 0.047496535 -0.14545813 0.10389867 0.18108054 0.19592321 0.05046507 -0.06530774
0.017811202 -0.014842667 -0.038590934 -0.0267168 0.05046507 -0.19295467 -0.020779734 -0.011874134
